…
I0517 10:37:18.039921 15304 net.cpp:51] Initializing net from parameters: 
name: "Oxford102_VGG_CNN_S"
state {
  phase: TRAIN
  level: 0
  stage: ""
}
layer {
  name: "data"
  type: "ImageData"
  top: "data"
  top: "label"
  include {
    phase: TRAIN
  }
  transform_param {
    mirror: true
    crop_size: 224
    mean_file: "/home/stavsofe@st.technion.ac.il/caffe/data/ilsvrc12/imagenet_mean.binaryproto"
  }
  image_data_param {
    source: "/home/stavsofe@st.technion.ac.il/caffe-oxford102/test.txt"
    batch_size: 50
    new_height: 256
    new_width: 256
  }
}
layer {
  name: "conv1"
  type: "Convolution"
  bottom: "data"
  top: "conv1"
  param {
    lr_mult: 1
    decay_mult: 1
  }
  param {
    lr_mult: 2
    decay_mult: 0
  }
  convolution_param {
    num_output: 96
    kernel_size: 7
    stride: 2
    weight_filler {
      type: "gaussian"
      std: 0.01
    }
    bias_filler {
      type: "constant"
      value: 0
    }
  }
}
layer {
  name: "relu1"
  type: "ReLU"
  bottom: "conv1"
  top: "conv1"
}
layer {
  name: "norm1"
  type: "LRN"
  bottom: "conv1"
  top: "norm1"
  lrn_param {
    local_size: 5
    alpha: 0.0005
    beta: 0.75
    k: 2
  }
}
layer {
  name: "pool1"
  type: "Pooling"
  bottom: "norm1"
  top: "pool1"
  pooling_param {
    pool: MAX
    kernel_size: 3
    stride: 3
  }
}
layer {
  name: "conv2"
  type: "Convolution"
  bottom: "pool1"
  top: "conv2"
  param {
    lr_mult: 1
    decay_mult: 1
  }
  param {
    lr_mult: 2
    decay_mult: 0
  }
  convolution_param {
    num_output: 256
    kernel_size: 5
    weight_filler {
      type: "gaussian"
      std: 0.01
    }
    bias_filler {
      type: "constant"
      value: 1
    }
  }
}
layer {
  name: "relu2"
  type: "ReLU"
  bottom: "conv2"
  top: "conv2"
}
layer {
  name: "pool2"
  type: "Pooling"
  bottom: "conv2"
  top: "pool2"
  pooling_param {
    pool: MAX
    kernel_size: 2
    stride: 2
  }
}
layer {
  name: "conv3"
  type: "Convolution"
  bottom: "pool2"
  top: "conv3"
  param {
    lr_mult: 1
    decay_mult: 1
  }
  param {
    lr_mult: 2
    decay_mult: 0
  }
  convolution_param {
    num_output: 512
    pad: 1
    kernel_size: 3
    weight_filler {
      type: "gaussian"
      std: 0.01
    }
    bias_filler {
      type: "constant"
      value: 1
    }
  }
}
layer {
  name: "relu3"
  type: "ReLU"
  bottom: "conv3"
  top: "conv3"
}
layer {
  name: "conv4"
  type: "Convolution"
  bottom: "conv3"
  top: "conv4"
  param {
    lr_mult: 1
    decay_mult: 1
  }
  param {
    lr_mult: 2
    decay_mult: 0
  }
  convolution_param {
    num_output: 512
    pad: 1
    kernel_size: 3
    weight_filler {
      type: "gaussian"
      std: 0.01
    }
    bias_filler {
      type: "constant"
      value: 1
    }
  }
}
layer {
  name: "relu4"
  type: "ReLU"
  bottom: "conv4"
  top: "conv4"
}
layer {
  name: "conv5"
  type: "Convolution"
  bottom: "conv4"
  top: "conv5"
  param {
    lr_mult: 1
    decay_mult: 1
  }
  param {
    lr_mult: 2
    decay_mult: 0
  }
  convolution_param {
    num_output: 512
    pad: 1
    kernel_size: 3
    weight_filler {
      type: "gaussian"
      std: 0.005
    }
    bias_filler {
      type: "constant"
      value: 1
    }
  }
}
layer {
  name: "relu5"
  type: "ReLU"
  bottom: "conv5"
  top: "conv5"
}
layer {
  name: "pool5"
  type: "Pooling"
  bottom: "conv5"
  top: "pool5"
  pooling_param {
    pool: MAX
    kernel_size: 3
    stride: 3
  }
}
layer {
  name: "fc6"
  type: "InnerProduct"
  bottom: "pool5"
  top: "fc6"
  inner_product_param {
    num_output: 4096
  }
}
layer {
  name: "relu6"
  type: "ReLU"
  bottom: "fc6"
  top: "fc6"
}
layer {
  name: "drop6"
  type: "Dropout"
  bottom: "fc6"
  top: "fc6"
  dropout_param {
    dropout_ratio: 0.5
  }
}
layer {
  name: "fc7"
  type: "InnerProduct"
  bottom: "fc6"
  top: "fc7"
  inner_product_param {
    num_output: 4096
  }
}
layer {
  name: "relu7"
  type: "ReLU"
  bottom: "fc7"
  top: "fc7"
}
layer {
  name: "drop7"
  type: "Dropout"
  bottom: "fc7"
  top: "fc7"
  dropout_param {
    dropout_ratio: 0.5
  }
}
layer {
  name: "fc8_oxford102"
  type: "InnerProduct"
  bottom: "fc7"
  top: "fc8_oxford102"
  param {
    lr_mult: 10
    decay_mult: 1
  }
  param {
    lr_mult: 20
    decay_mult: 0
  }
  inner_product_param {
    num_output: 102
    weight_filler {
      type: "gaussian"
      std: 0.01
    }
    bias_filler {
      type: "constant"
      value: 0
    }
  }
}
layer {
  name: "loss"
  type: "SoftmaxWithLoss"
  bottom: "fc8_oxford102"
  bottom: "label"
}
I0517 10:37:18.040073 15304 layer_factory.hpp:77] Creating layer data
I0517 10:37:18.040112 15304 net.cpp:84] Creating Layer data
I0517 10:37:18.040123 15304 net.cpp:380] data -> data
I0517 10:37:18.040148 15304 net.cpp:380] data -> label
I0517 10:37:18.040174 15304 data_transformer.cpp:25] Loading mean file from: /home/stavsofe@st.technion.ac.il/caffe/data/ilsvrc12/imagenet_mean.binaryproto
I0517 10:37:18.044463 15304 image_data_layer.cpp:38] Opening file /home/stavsofe@st.technion.ac.il/caffe-oxford102/test.txt
I0517 10:37:18.047071 15304 image_data_layer.cpp:63] A total of 6149 images.
I0517 10:37:18.052806 15304 image_data_layer.cpp:90] output data size: 50,3,224,224
I0517 10:37:18.125154 15304 net.cpp:122] Setting up data
I0517 10:37:18.125216 15304 net.cpp:129] Top shape: 50 3 224 224 (7526400)
I0517 10:37:18.125226 15304 net.cpp:129] Top shape: 50 (50)
I0517 10:37:18.125229 15304 net.cpp:137] Memory required for data: 30105800
I0517 10:37:18.125239 15304 layer_factory.hpp:77] Creating layer conv1
I0517 10:37:18.125267 15304 net.cpp:84] Creating Layer conv1
I0517 10:37:18.125273 15304 net.cpp:406] conv1 <- data
I0517 10:37:18.125291 15304 net.cpp:380] conv1 -> conv1
I0517 10:37:18.286578 15304 net.cpp:122] Setting up conv1
I0517 10:37:18.286612 15304 net.cpp:129] Top shape: 50 96 109 109 (57028800)
I0517 10:37:18.286617 15304 net.cpp:137] Memory required for data: 258221000
I0517 10:37:18.286643 15304 layer_factory.hpp:77] Creating layer relu1
I0517 10:37:18.286660 15304 net.cpp:84] Creating Layer relu1
I0517 10:37:18.286666 15304 net.cpp:406] relu1 <- conv1
I0517 10:37:18.286674 15304 net.cpp:367] relu1 -> conv1 (in-place)
I0517 10:37:18.286871 15304 net.cpp:122] Setting up relu1
I0517 10:37:18.286883 15304 net.cpp:129] Top shape: 50 96 109 109 (57028800)
I0517 10:37:18.286887 15304 net.cpp:137] Memory required for data: 486336200
I0517 10:37:18.286892 15304 layer_factory.hpp:77] Creating layer norm1
I0517 10:37:18.286906 15304 net.cpp:84] Creating Layer norm1
I0517 10:37:18.286911 15304 net.cpp:406] norm1 <- conv1
I0517 10:37:18.286916 15304 net.cpp:380] norm1 -> norm1
I0517 10:37:18.287206 15304 net.cpp:122] Setting up norm1
I0517 10:37:18.287219 15304 net.cpp:129] Top shape: 50 96 109 109 (57028800)
I0517 10:37:18.287223 15304 net.cpp:137] Memory required for data: 714451400
I0517 10:37:18.287227 15304 layer_factory.hpp:77] Creating layer pool1
I0517 10:37:18.287237 15304 net.cpp:84] Creating Layer pool1
I0517 10:37:18.287241 15304 net.cpp:406] pool1 <- norm1
I0517 10:37:18.287248 15304 net.cpp:380] pool1 -> pool1
I0517 10:37:18.287299 15304 net.cpp:122] Setting up pool1
I0517 10:37:18.287312 15304 net.cpp:129] Top shape: 50 96 37 37 (6571200)
I0517 10:37:18.287343 15304 net.cpp:137] Memory required for data: 740736200
I0517 10:37:18.287348 15304 layer_factory.hpp:77] Creating layer conv2
I0517 10:37:18.287360 15304 net.cpp:84] Creating Layer conv2
I0517 10:37:18.287364 15304 net.cpp:406] conv2 <- pool1
I0517 10:37:18.287371 15304 net.cpp:380] conv2 -> conv2
I0517 10:37:18.308815 15304 net.cpp:122] Setting up conv2
I0517 10:37:18.308835 15304 net.cpp:129] Top shape: 50 256 33 33 (13939200)
I0517 10:37:18.308840 15304 net.cpp:137] Memory required for data: 796493000
I0517 10:37:18.308851 15304 layer_factory.hpp:77] Creating layer relu2
I0517 10:37:18.308861 15304 net.cpp:84] Creating Layer relu2
I0517 10:37:18.308864 15304 net.cpp:406] relu2 <- conv2
I0517 10:37:18.308873 15304 net.cpp:367] relu2 -> conv2 (in-place)
I0517 10:37:18.309067 15304 net.cpp:122] Setting up relu2
I0517 10:37:18.309077 15304 net.cpp:129] Top shape: 50 256 33 33 (13939200)
I0517 10:37:18.309080 15304 net.cpp:137] Memory required for data: 852249800
I0517 10:37:18.309084 15304 layer_factory.hpp:77] Creating layer pool2
I0517 10:37:18.309092 15304 net.cpp:84] Creating Layer pool2
I0517 10:37:18.309096 15304 net.cpp:406] pool2 <- conv2
I0517 10:37:18.309103 15304 net.cpp:380] pool2 -> pool2
I0517 10:37:18.309197 15304 net.cpp:122] Setting up pool2
I0517 10:37:18.309208 15304 net.cpp:129] Top shape: 50 256 17 17 (3699200)
I0517 10:37:18.309212 15304 net.cpp:137] Memory required for data: 867046600
I0517 10:37:18.309217 15304 layer_factory.hpp:77] Creating layer conv3
I0517 10:37:18.309234 15304 net.cpp:84] Creating Layer conv3
I0517 10:37:18.309239 15304 net.cpp:406] conv3 <- pool2
I0517 10:37:18.309247 15304 net.cpp:380] conv3 -> conv3
I0517 10:37:18.349185 15304 net.cpp:122] Setting up conv3
I0517 10:37:18.349205 15304 net.cpp:129] Top shape: 50 512 17 17 (7398400)
I0517 10:37:18.349210 15304 net.cpp:137] Memory required for data: 896640200
I0517 10:37:18.349223 15304 layer_factory.hpp:77] Creating layer relu3
I0517 10:37:18.349231 15304 net.cpp:84] Creating Layer relu3
I0517 10:37:18.349236 15304 net.cpp:406] relu3 <- conv3
I0517 10:37:18.349247 15304 net.cpp:367] relu3 -> conv3 (in-place)
I0517 10:37:18.349504 15304 net.cpp:122] Setting up relu3
I0517 10:37:18.349516 15304 net.cpp:129] Top shape: 50 512 17 17 (7398400)
I0517 10:37:18.349520 15304 net.cpp:137] Memory required for data: 926233800
I0517 10:37:18.349525 15304 layer_factory.hpp:77] Creating layer conv4
I0517 10:37:18.349551 15304 net.cpp:84] Creating Layer conv4
I0517 10:37:18.349557 15304 net.cpp:406] conv4 <- conv3
I0517 10:37:18.349565 15304 net.cpp:380] conv4 -> conv4
I0517 10:37:18.427482 15304 net.cpp:122] Setting up conv4
I0517 10:37:18.427513 15304 net.cpp:129] Top shape: 50 512 17 17 (7398400)
I0517 10:37:18.427518 15304 net.cpp:137] Memory required for data: 955827400
I0517 10:37:18.427530 15304 layer_factory.hpp:77] Creating layer relu4
I0517 10:37:18.427552 15304 net.cpp:84] Creating Layer relu4
I0517 10:37:18.427559 15304 net.cpp:406] relu4 <- conv4
I0517 10:37:18.427568 15304 net.cpp:367] relu4 -> conv4 (in-place)
I0517 10:37:18.427925 15304 net.cpp:122] Setting up relu4
I0517 10:37:18.427940 15304 net.cpp:129] Top shape: 50 512 17 17 (7398400)
I0517 10:37:18.427944 15304 net.cpp:137] Memory required for data: 985421000
I0517 10:37:18.427949 15304 layer_factory.hpp:77] Creating layer conv5
I0517 10:37:18.427965 15304 net.cpp:84] Creating Layer conv5
I0517 10:37:18.427971 15304 net.cpp:406] conv5 <- conv4
I0517 10:37:18.427979 15304 net.cpp:380] conv5 -> conv5
I0517 10:37:18.505646 15304 net.cpp:122] Setting up conv5
I0517 10:37:18.505676 15304 net.cpp:129] Top shape: 50 512 17 17 (7398400)
I0517 10:37:18.505681 15304 net.cpp:137] Memory required for data: 1015014600
I0517 10:37:18.505697 15304 layer_factory.hpp:77] Creating layer relu5
I0517 10:37:18.505709 15304 net.cpp:84] Creating Layer relu5
I0517 10:37:18.505715 15304 net.cpp:406] relu5 <- conv5
I0517 10:37:18.505724 15304 net.cpp:367] relu5 -> conv5 (in-place)
I0517 10:37:18.505925 15304 net.cpp:122] Setting up relu5
I0517 10:37:18.505961 15304 net.cpp:129] Top shape: 50 512 17 17 (7398400)
I0517 10:37:18.505966 15304 net.cpp:137] Memory required for data: 1044608200
I0517 10:37:18.505970 15304 layer_factory.hpp:77] Creating layer pool5
I0517 10:37:18.505980 15304 net.cpp:84] Creating Layer pool5
I0517 10:37:18.505985 15304 net.cpp:406] pool5 <- conv5
I0517 10:37:18.505991 15304 net.cpp:380] pool5 -> pool5
I0517 10:37:18.506039 15304 net.cpp:122] Setting up pool5
I0517 10:37:18.506047 15304 net.cpp:129] Top shape: 50 512 6 6 (921600)
I0517 10:37:18.506049 15304 net.cpp:137] Memory required for data: 1048294600
I0517 10:37:18.506053 15304 layer_factory.hpp:77] Creating layer fc6
I0517 10:37:18.506067 15304 net.cpp:84] Creating Layer fc6
I0517 10:37:18.506070 15304 net.cpp:406] fc6 <- pool5
I0517 10:37:18.506078 15304 net.cpp:380] fc6 -> fc6
I0517 10:37:18.680470 15304 net.cpp:122] Setting up fc6
I0517 10:37:18.680505 15304 net.cpp:129] Top shape: 50 4096 (204800)
I0517 10:37:18.680510 15304 net.cpp:137] Memory required for data: 1049113800
I0517 10:37:18.680522 15304 layer_factory.hpp:77] Creating layer relu6
I0517 10:37:18.680548 15304 net.cpp:84] Creating Layer relu6
I0517 10:37:18.680557 15304 net.cpp:406] relu6 <- fc6
I0517 10:37:18.680565 15304 net.cpp:367] relu6 -> fc6 (in-place)
I0517 10:37:18.680979 15304 net.cpp:122] Setting up relu6
I0517 10:37:18.680994 15304 net.cpp:129] Top shape: 50 4096 (204800)
I0517 10:37:18.680997 15304 net.cpp:137] Memory required for data: 1049933000
I0517 10:37:18.681002 15304 layer_factory.hpp:77] Creating layer drop6
I0517 10:37:18.681016 15304 net.cpp:84] Creating Layer drop6
I0517 10:37:18.681020 15304 net.cpp:406] drop6 <- fc6
I0517 10:37:18.681027 15304 net.cpp:367] drop6 -> fc6 (in-place)
I0517 10:37:18.681067 15304 net.cpp:122] Setting up drop6
I0517 10:37:18.681074 15304 net.cpp:129] Top shape: 50 4096 (204800)
I0517 10:37:18.681078 15304 net.cpp:137] Memory required for data: 1050752200
I0517 10:37:18.681082 15304 layer_factory.hpp:77] Creating layer fc7
I0517 10:37:18.681090 15304 net.cpp:84] Creating Layer fc7
I0517 10:37:18.681094 15304 net.cpp:406] fc7 <- fc6
I0517 10:37:18.681102 15304 net.cpp:380] fc7 -> fc7
I0517 10:37:18.720824 15304 net.cpp:122] Setting up fc7
I0517 10:37:18.720856 15304 net.cpp:129] Top shape: 50 4096 (204800)
I0517 10:37:18.720861 15304 net.cpp:137] Memory required for data: 1051571400
I0517 10:37:18.720872 15304 layer_factory.hpp:77] Creating layer relu7
I0517 10:37:18.720885 15304 net.cpp:84] Creating Layer relu7
I0517 10:37:18.720891 15304 net.cpp:406] relu7 <- fc7
I0517 10:37:18.720902 15304 net.cpp:367] relu7 -> fc7 (in-place)
I0517 10:37:18.721155 15304 net.cpp:122] Setting up relu7
I0517 10:37:18.721165 15304 net.cpp:129] Top shape: 50 4096 (204800)
I0517 10:37:18.721169 15304 net.cpp:137] Memory required for data: 1052390600
I0517 10:37:18.721174 15304 layer_factory.hpp:77] Creating layer drop7
I0517 10:37:18.721185 15304 net.cpp:84] Creating Layer drop7
I0517 10:37:18.721189 15304 net.cpp:406] drop7 <- fc7
I0517 10:37:18.721195 15304 net.cpp:367] drop7 -> fc7 (in-place)
I0517 10:37:18.721227 15304 net.cpp:122] Setting up drop7
I0517 10:37:18.721235 15304 net.cpp:129] Top shape: 50 4096 (204800)
I0517 10:37:18.721237 15304 net.cpp:137] Memory required for data: 1053209800
I0517 10:37:18.721241 15304 layer_factory.hpp:77] Creating layer fc8_oxford102
I0517 10:37:18.721251 15304 net.cpp:84] Creating Layer fc8_oxford102
I0517 10:37:18.721257 15304 net.cpp:406] fc8_oxford102 <- fc7
I0517 10:37:18.721263 15304 net.cpp:380] fc8_oxford102 -> fc8_oxford102
I0517 10:37:18.735291 15304 net.cpp:122] Setting up fc8_oxford102
I0517 10:37:18.735308 15304 net.cpp:129] Top shape: 50 102 (5100)
I0517 10:37:18.735312 15304 net.cpp:137] Memory required for data: 1053230200
I0517 10:37:18.735321 15304 layer_factory.hpp:77] Creating layer loss
I0517 10:37:18.735335 15304 net.cpp:84] Creating Layer loss
I0517 10:37:18.735342 15304 net.cpp:406] loss <- fc8_oxford102
I0517 10:37:18.735347 15304 net.cpp:406] loss <- label
I0517 10:37:18.735364 15304 net.cpp:380] loss -> (automatic)
I0517 10:37:18.735404 15304 layer_factory.hpp:77] Creating layer loss
…
I0517 10:37:18.737684 15304 net.cpp:294] The NetState phase (1) differed from the phase (0) specified by a rule in layer data
I0517 10:37:18.737895 15304 net.cpp:51] Initializing net from parameters: 
name: "Oxford102_VGG_CNN_S"
state {
  phase: TEST
}
layer {
  name: "data"
  type: "ImageData"
  top: "data"
  top: "label"
  include {
    phase: TEST
  }
  transform_param {
    mirror: false
    crop_size: 224
    mean_file: "/home/stavsofe@st.technion.ac.il/caffe/data/ilsvrc12/imagenet_mean.binaryproto"
  }
  image_data_param {
    source: "/home/stavsofe@st.technion.ac.il/caffe-oxford102/train.txt"
    batch_size: 50
    new_height: 256
    new_width: 256
  }
}
layer {
  name: "conv1"
  type: "Convolution"
  bottom: "data"
  top: "conv1"
  param {
    lr_mult: 1
    decay_mult: 1
  }
  param {
    lr_mult: 2
    decay_mult: 0
  }
  convolution_param {
    num_output: 96
    kernel_size: 7
    stride: 2
    weight_filler {
      type: "gaussian"
      std: 0.01
    }
    bias_filler {
      type: "constant"
      value: 0
    }
  }
}
layer {
  name: "relu1"
  type: "ReLU"
  bottom: "conv1"
  top: "conv1"
}
layer {
  name: "norm1"
  type: "LRN"
  bottom: "conv1"
  top: "norm1"
  lrn_param {
    local_size: 5
    alpha: 0.0005
    beta: 0.75
    k: 2
  }
}
layer {
  name: "pool1"
  type: "Pooling"
  bottom: "norm1"
  top: "pool1"
  pooling_param {
    pool: MAX
    kernel_size: 3
    stride: 3
  }
}
layer {
  name: "conv2"
  type: "Convolution"
  bottom: "pool1"
  top: "conv2"
  param {
    lr_mult: 1
    decay_mult: 1
  }
  param {
    lr_mult: 2
    decay_mult: 0
  }
  convolution_param {
    num_output: 256
    kernel_size: 5
    weight_filler {
      type: "gaussian"
      std: 0.01
    }
    bias_filler {
      type: "constant"
      value: 1
    }
  }
}
layer {
  name: "relu2"
  type: "ReLU"
  bottom: "conv2"
  top: "conv2"
}
layer {
  name: "pool2"
  type: "Pooling"
  bottom: "conv2"
  top: "pool2"
  pooling_param {
    pool: MAX
    kernel_size: 2
    stride: 2
  }
}
layer {
  name: "conv3"
  type: "Convolution"
  bottom: "pool2"
  top: "conv3"
  param {
    lr_mult: 1
    decay_mult: 1
  }
  param {
    lr_mult: 2
    decay_mult: 0
  }
  convolution_param {
    num_output: 512
    pad: 1
    kernel_size: 3
    weight_filler {
      type: "gaussian"
      std: 0.01
    }
    bias_filler {
      type: "constant"
      value: 1
    }
  }
}
layer {
  name: "relu3"
  type: "ReLU"
  bottom: "conv3"
  top: "conv3"
}
layer {
  name: "conv4"
  type: "Convolution"
  bottom: "conv3"
  top: "conv4"
  param {
    lr_mult: 1
    decay_mult: 1
  }
  param {
    lr_mult: 2
    decay_mult: 0
  }
  convolution_param {
    num_output: 512
    pad: 1
    kernel_size: 3
    weight_filler {
      type: "gaussian"
      std: 0.01
    }
    bias_filler {
      type: "constant"
      value: 1
    }
  }
}
layer {
  name: "relu4"
  type: "ReLU"
  bottom: "conv4"
  top: "conv4"
}
layer {
  name: "conv5"
  type: "Convolution"
  bottom: "conv4"
  top: "conv5"
  param {
    lr_mult: 1
    decay_mult: 1
  }
  param {
    lr_mult: 2
    decay_mult: 0
  }
  convolution_param {
    num_output: 512
    pad: 1
    kernel_size: 3
    weight_filler {
      type: "gaussian"
      std: 0.005
    }
    bias_filler {
      type: "constant"
      value: 1
    }
  }
}
layer {
  name: "relu5"
  type: "ReLU"
  bottom: "conv5"
  top: "conv5"
}
layer {
  name: "pool5"
  type: "Pooling"
  bottom: "conv5"
  top: "pool5"
  pooling_param {
    pool: MAX
    kernel_size: 3
    stride: 3
  }
}
layer {
  name: "fc6"
  type: "InnerProduct"
  bottom: "pool5"
  top: "fc6"
  inner_product_param {
    num_output: 4096
  }
}
layer {
  name: "relu6"
  type: "ReLU"
  bottom: "fc6"
  top: "fc6"
}
layer {
  name: "drop6"
  type: "Dropout"
  bottom: "fc6"
  top: "fc6"
  dropout_param {
    dropout_ratio: 0.5
  }
}
layer {
  name: "fc7"
  type: "InnerProduct"
  bottom: "fc6"
  top: "fc7"
  inner_product_param {
    num_output: 4096
  }
}
layer {
  name: "relu7"
  type: "ReLU"
  bottom: "fc7"
  top: "fc7"
}
layer {
  name: "drop7"
  type: "Dropout"
  bottom: "fc7"
  top: "fc7"
  dropout_param {
    dropout_ratio: 0.5
  }
}
layer {
  name: "fc8_oxford102"
  type: "InnerProduct"
  bottom: "fc7"
  top: "fc8_oxford102"
  param {
    lr_mult: 10
    decay_mult: 1
  }
  param {
    lr_mult: 20
    decay_mult: 0
  }
  inner_product_param {
    num_output: 102
    weight_filler {
      type: "gaussian"
      std: 0.01
    }
    bias_filler {
      type: "constant"
      value: 0
    }
  }
}
layer {
  name: "loss"
  type: "SoftmaxWithLoss"
  bottom: "fc8_oxford102"
  bottom: "label"
}
layer {
  name: "accuracy"
  type: "Accuracy"
  bottom: "fc8_oxford102"
  bottom: "label"
  top: "accuracy"
  include {
    phase: TEST
  }
}
I0517 10:37:18.738050 15304 layer_factory.hpp:77] Creating layer data
I0517 10:37:18.738070 15304 net.cpp:84] Creating Layer data
I0517 10:37:18.738075 15304 net.cpp:380] data -> data
I0517 10:37:18.738085 15304 net.cpp:380] data -> label
I0517 10:37:18.738095 15304 data_transformer.cpp:25] Loading mean file from: /home/stavsofe@st.technion.ac.il/caffe/data/ilsvrc12/imagenet_mean.binaryproto
I0517 10:37:18.740931 15304 image_data_layer.cpp:38] Opening file /home/stavsofe@st.technion.ac.il/caffe-oxford102/train.txt
I0517 10:37:18.741679 15304 image_data_layer.cpp:63] A total of 1020 images.
I0517 10:37:18.746338 15304 image_data_layer.cpp:90] output data size: 50,3,224,224
I0517 10:37:18.817270 15304 net.cpp:122] Setting up data
I0517 10:37:18.817302 15304 net.cpp:129] Top shape: 50 3 224 224 (7526400)
I0517 10:37:18.817309 15304 net.cpp:129] Top shape: 50 (50)
I0517 10:37:18.817319 15304 net.cpp:137] Memory required for data: 30105800
I0517 10:37:18.817355 15304 layer_factory.hpp:77] Creating layer label_data_1_split
I0517 10:37:18.817376 15304 net.cpp:84] Creating Layer label_data_1_split
I0517 10:37:18.817381 15304 net.cpp:406] label_data_1_split <- label
I0517 10:37:18.817390 15304 net.cpp:380] label_data_1_split -> label_data_1_split_0
I0517 10:37:18.817404 15304 net.cpp:380] label_data_1_split -> label_data_1_split_1
I0517 10:37:18.817494 15304 net.cpp:122] Setting up label_data_1_split
I0517 10:37:18.817503 15304 net.cpp:129] Top shape: 50 (50)
I0517 10:37:18.817508 15304 net.cpp:129] Top shape: 50 (50)
I0517 10:37:18.817512 15304 net.cpp:137] Memory required for data: 30106200
I0517 10:37:18.817517 15304 layer_factory.hpp:77] Creating layer conv1
I0517 10:37:18.817533 15304 net.cpp:84] Creating Layer conv1
I0517 10:37:18.817545 15304 net.cpp:406] conv1 <- data
I0517 10:37:18.817555 15304 net.cpp:380] conv1 -> conv1
I0517 10:37:18.819448 15304 net.cpp:122] Setting up conv1
I0517 10:37:18.819466 15304 net.cpp:129] Top shape: 50 96 109 109 (57028800)
I0517 10:37:18.819471 15304 net.cpp:137] Memory required for data: 258221400
I0517 10:37:18.819485 15304 layer_factory.hpp:77] Creating layer relu1
I0517 10:37:18.819494 15304 net.cpp:84] Creating Layer relu1
I0517 10:37:18.819499 15304 net.cpp:406] relu1 <- conv1
I0517 10:37:18.819505 15304 net.cpp:367] relu1 -> conv1 (in-place)
I0517 10:37:18.819700 15304 net.cpp:122] Setting up relu1
I0517 10:37:18.819710 15304 net.cpp:129] Top shape: 50 96 109 109 (57028800)
I0517 10:37:18.819715 15304 net.cpp:137] Memory required for data: 486336600
I0517 10:37:18.819718 15304 layer_factory.hpp:77] Creating layer norm1
I0517 10:37:18.819730 15304 net.cpp:84] Creating Layer norm1
I0517 10:37:18.819733 15304 net.cpp:406] norm1 <- conv1
I0517 10:37:18.819741 15304 net.cpp:380] norm1 -> norm1
I0517 10:37:18.820049 15304 net.cpp:122] Setting up norm1
I0517 10:37:18.820060 15304 net.cpp:129] Top shape: 50 96 109 109 (57028800)
I0517 10:37:18.820065 15304 net.cpp:137] Memory required for data: 714451800
I0517 10:37:18.820070 15304 layer_factory.hpp:77] Creating layer pool1
I0517 10:37:18.820077 15304 net.cpp:84] Creating Layer pool1
I0517 10:37:18.820081 15304 net.cpp:406] pool1 <- norm1
I0517 10:37:18.820088 15304 net.cpp:380] pool1 -> pool1
I0517 10:37:18.820129 15304 net.cpp:122] Setting up pool1
I0517 10:37:18.820135 15304 net.cpp:129] Top shape: 50 96 37 37 (6571200)
I0517 10:37:18.820139 15304 net.cpp:137] Memory required for data: 740736600
I0517 10:37:18.820142 15304 layer_factory.hpp:77] Creating layer conv2
I0517 10:37:18.820153 15304 net.cpp:84] Creating Layer conv2
I0517 10:37:18.820158 15304 net.cpp:406] conv2 <- pool1
I0517 10:37:18.820165 15304 net.cpp:380] conv2 -> conv2
I0517 10:37:18.841646 15304 net.cpp:122] Setting up conv2
I0517 10:37:18.841672 15304 net.cpp:129] Top shape: 50 256 33 33 (13939200)
I0517 10:37:18.841678 15304 net.cpp:137] Memory required for data: 796493400
I0517 10:37:18.841692 15304 layer_factory.hpp:77] Creating layer relu2
I0517 10:37:18.841703 15304 net.cpp:84] Creating Layer relu2
I0517 10:37:18.841709 15304 net.cpp:406] relu2 <- conv2
I0517 10:37:18.841717 15304 net.cpp:367] relu2 -> conv2 (in-place)
I0517 10:37:18.841909 15304 net.cpp:122] Setting up relu2
I0517 10:37:18.841918 15304 net.cpp:129] Top shape: 50 256 33 33 (13939200)
I0517 10:37:18.841922 15304 net.cpp:137] Memory required for data: 852250200
I0517 10:37:18.841928 15304 layer_factory.hpp:77] Creating layer pool2
I0517 10:37:18.841938 15304 net.cpp:84] Creating Layer pool2
I0517 10:37:18.841941 15304 net.cpp:406] pool2 <- conv2
I0517 10:37:18.841948 15304 net.cpp:380] pool2 -> pool2
I0517 10:37:18.841998 15304 net.cpp:122] Setting up pool2
I0517 10:37:18.842005 15304 net.cpp:129] Top shape: 50 256 17 17 (3699200)
I0517 10:37:18.842010 15304 net.cpp:137] Memory required for data: 867047000
I0517 10:37:18.842013 15304 layer_factory.hpp:77] Creating layer conv3
I0517 10:37:18.842025 15304 net.cpp:84] Creating Layer conv3
I0517 10:37:18.842036 15304 net.cpp:406] conv3 <- pool2
I0517 10:37:18.842070 15304 net.cpp:380] conv3 -> conv3
I0517 10:37:18.882858 15304 net.cpp:122] Setting up conv3
I0517 10:37:18.882933 15304 net.cpp:129] Top shape: 50 512 17 17 (7398400)
I0517 10:37:18.882946 15304 net.cpp:137] Memory required for data: 896640600
I0517 10:37:18.882962 15304 layer_factory.hpp:77] Creating layer relu3
I0517 10:37:18.882974 15304 net.cpp:84] Creating Layer relu3
I0517 10:37:18.882980 15304 net.cpp:406] relu3 <- conv3
I0517 10:37:18.882989 15304 net.cpp:367] relu3 -> conv3 (in-place)
I0517 10:37:18.883190 15304 net.cpp:122] Setting up relu3
I0517 10:37:18.883200 15304 net.cpp:129] Top shape: 50 512 17 17 (7398400)
I0517 10:37:18.883205 15304 net.cpp:137] Memory required for data: 926234200
I0517 10:37:18.883209 15304 layer_factory.hpp:77] Creating layer conv4
I0517 10:37:18.883222 15304 net.cpp:84] Creating Layer conv4
I0517 10:37:18.883226 15304 net.cpp:406] conv4 <- conv3
I0517 10:37:18.883235 15304 net.cpp:380] conv4 -> conv4
I0517 10:37:18.962498 15304 net.cpp:122] Setting up conv4
I0517 10:37:18.962530 15304 net.cpp:129] Top shape: 50 512 17 17 (7398400)
I0517 10:37:18.962535 15304 net.cpp:137] Memory required for data: 955827800
I0517 10:37:18.962556 15304 layer_factory.hpp:77] Creating layer relu4
I0517 10:37:18.962569 15304 net.cpp:84] Creating Layer relu4
I0517 10:37:18.962575 15304 net.cpp:406] relu4 <- conv4
I0517 10:37:18.962585 15304 net.cpp:367] relu4 -> conv4 (in-place)
I0517 10:37:18.962855 15304 net.cpp:122] Setting up relu4
I0517 10:37:18.962868 15304 net.cpp:129] Top shape: 50 512 17 17 (7398400)
I0517 10:37:18.962873 15304 net.cpp:137] Memory required for data: 985421400
I0517 10:37:18.962877 15304 layer_factory.hpp:77] Creating layer conv5
I0517 10:37:18.962941 15304 net.cpp:84] Creating Layer conv5
I0517 10:37:18.962949 15304 net.cpp:406] conv5 <- conv4
I0517 10:37:18.962960 15304 net.cpp:380] conv5 -> conv5
I0517 10:37:19.042065 15304 net.cpp:122] Setting up conv5
I0517 10:37:19.042096 15304 net.cpp:129] Top shape: 50 512 17 17 (7398400)
I0517 10:37:19.042102 15304 net.cpp:137] Memory required for data: 1015015000
I0517 10:37:19.042119 15304 layer_factory.hpp:77] Creating layer relu5
I0517 10:37:19.042132 15304 net.cpp:84] Creating Layer relu5
I0517 10:37:19.042138 15304 net.cpp:406] relu5 <- conv5
I0517 10:37:19.042146 15304 net.cpp:367] relu5 -> conv5 (in-place)
I0517 10:37:19.042336 15304 net.cpp:122] Setting up relu5
I0517 10:37:19.042346 15304 net.cpp:129] Top shape: 50 512 17 17 (7398400)
I0517 10:37:19.042351 15304 net.cpp:137] Memory required for data: 1044608600
I0517 10:37:19.042354 15304 layer_factory.hpp:77] Creating layer pool5
I0517 10:37:19.042362 15304 net.cpp:84] Creating Layer pool5
I0517 10:37:19.042366 15304 net.cpp:406] pool5 <- conv5
I0517 10:37:19.042374 15304 net.cpp:380] pool5 -> pool5
I0517 10:37:19.042424 15304 net.cpp:122] Setting up pool5
I0517 10:37:19.042430 15304 net.cpp:129] Top shape: 50 512 6 6 (921600)
I0517 10:37:19.042434 15304 net.cpp:137] Memory required for data: 1048295000
I0517 10:37:19.042438 15304 layer_factory.hpp:77] Creating layer fc6
I0517 10:37:19.042450 15304 net.cpp:84] Creating Layer fc6
I0517 10:37:19.042454 15304 net.cpp:406] fc6 <- pool5
I0517 10:37:19.042461 15304 net.cpp:380] fc6 -> fc6
I0517 10:37:19.214545 15304 net.cpp:122] Setting up fc6
I0517 10:37:19.214576 15304 net.cpp:129] Top shape: 50 4096 (204800)
I0517 10:37:19.214612 15304 net.cpp:137] Memory required for data: 1049114200
I0517 10:37:19.214624 15304 layer_factory.hpp:77] Creating layer relu6
I0517 10:37:19.214637 15304 net.cpp:84] Creating Layer relu6
I0517 10:37:19.214643 15304 net.cpp:406] relu6 <- fc6
I0517 10:37:19.214653 15304 net.cpp:367] relu6 -> fc6 (in-place)
I0517 10:37:19.215065 15304 net.cpp:122] Setting up relu6
I0517 10:37:19.215078 15304 net.cpp:129] Top shape: 50 4096 (204800)
I0517 10:37:19.215083 15304 net.cpp:137] Memory required for data: 1049933400
I0517 10:37:19.215087 15304 layer_factory.hpp:77] Creating layer drop6
I0517 10:37:19.215096 15304 net.cpp:84] Creating Layer drop6
I0517 10:37:19.215106 15304 net.cpp:406] drop6 <- fc6
I0517 10:37:19.215140 15304 net.cpp:367] drop6 -> fc6 (in-place)
I0517 10:37:19.215178 15304 net.cpp:122] Setting up drop6
I0517 10:37:19.215185 15304 net.cpp:129] Top shape: 50 4096 (204800)
I0517 10:37:19.215189 15304 net.cpp:137] Memory required for data: 1050752600
I0517 10:37:19.215193 15304 layer_factory.hpp:77] Creating layer fc7
I0517 10:37:19.215201 15304 net.cpp:84] Creating Layer fc7
I0517 10:37:19.215205 15304 net.cpp:406] fc7 <- fc6
I0517 10:37:19.215211 15304 net.cpp:380] fc7 -> fc7
I0517 10:37:19.254492 15304 net.cpp:122] Setting up fc7
I0517 10:37:19.254521 15304 net.cpp:129] Top shape: 50 4096 (204800)
I0517 10:37:19.254526 15304 net.cpp:137] Memory required for data: 1051571800
I0517 10:37:19.254544 15304 layer_factory.hpp:77] Creating layer relu7
I0517 10:37:19.254556 15304 net.cpp:84] Creating Layer relu7
I0517 10:37:19.254562 15304 net.cpp:406] relu7 <- fc7
I0517 10:37:19.254571 15304 net.cpp:367] relu7 -> fc7 (in-place)
I0517 10:37:19.254822 15304 net.cpp:122] Setting up relu7
I0517 10:37:19.254833 15304 net.cpp:129] Top shape: 50 4096 (204800)
I0517 10:37:19.254837 15304 net.cpp:137] Memory required for data: 1052391000
I0517 10:37:19.254842 15304 layer_factory.hpp:77] Creating layer drop7
I0517 10:37:19.254850 15304 net.cpp:84] Creating Layer drop7
I0517 10:37:19.254854 15304 net.cpp:406] drop7 <- fc7
I0517 10:37:19.254860 15304 net.cpp:367] drop7 -> fc7 (in-place)
I0517 10:37:19.254895 15304 net.cpp:122] Setting up drop7
I0517 10:37:19.254902 15304 net.cpp:129] Top shape: 50 4096 (204800)
I0517 10:37:19.254905 15304 net.cpp:137] Memory required for data: 1053210200
I0517 10:37:19.254909 15304 layer_factory.hpp:77] Creating layer fc8_oxford102
I0517 10:37:19.254920 15304 net.cpp:84] Creating Layer fc8_oxford102
I0517 10:37:19.254923 15304 net.cpp:406] fc8_oxford102 <- fc7
I0517 10:37:19.254931 15304 net.cpp:380] fc8_oxford102 -> fc8_oxford102
I0517 10:37:19.269302 15304 net.cpp:122] Setting up fc8_oxford102
I0517 10:37:19.269323 15304 net.cpp:129] Top shape: 50 102 (5100)
I0517 10:37:19.269328 15304 net.cpp:137] Memory required for data: 1053230600
I0517 10:37:19.269337 15304 layer_factory.hpp:77] Creating layer fc8_oxford102_fc8_oxford102_0_split
I0517 10:37:19.269346 15304 net.cpp:84] Creating Layer fc8_oxford102_fc8_oxford102_0_split
I0517 10:37:19.269351 15304 net.cpp:406] fc8_oxford102_fc8_oxford102_0_split <- fc8_oxford102
I0517 10:37:19.269358 15304 net.cpp:380] fc8_oxford102_fc8_oxford102_0_split -> fc8_oxford102_fc8_oxford102_0_split_0
I0517 10:37:19.269371 15304 net.cpp:380] fc8_oxford102_fc8_oxford102_0_split -> fc8_oxford102_fc8_oxford102_0_split_1
I0517 10:37:19.269424 15304 net.cpp:122] Setting up fc8_oxford102_fc8_oxford102_0_split
I0517 10:37:19.269433 15304 net.cpp:129] Top shape: 50 102 (5100)
I0517 10:37:19.269438 15304 net.cpp:129] Top shape: 50 102 (5100)
I0517 10:37:19.269441 15304 net.cpp:137] Memory required for data: 1053271400
I0517 10:37:19.269445 15304 layer_factory.hpp:77] Creating layer loss
I0517 10:37:19.269453 15304 net.cpp:84] Creating Layer loss
I0517 10:37:19.269456 15304 net.cpp:406] loss <- fc8_oxford102_fc8_oxford102_0_split_0
I0517 10:37:19.269461 15304 net.cpp:406] loss <- label_data_1_split_0
I0517 10:37:19.269469 15304 net.cpp:380] loss -> (automatic)
…
