…
I0527 21:38:43.819454 20958 net.cpp:51] Initializing net from parameters: 
name: "VGG-CNN-S"
state {
  phase: TRAIN
  level: 0
  stage: ""
}
layer {
  name: "data"
  type: "ImageData"
  top: "data"
  top: "label"
  include {
    phase: TRAIN
  }
  transform_param {
    mirror: true
    crop_size: 224
    mean_file: "/home/stavsofe@st.technion.ac.il/caffe/data/ilsvrc12/imagenet_mean.binaryproto"
  }
  image_data_param {
    source: "/home/stavsofe@st.technion.ac.il/caffe-oxford102/test.txt"
    batch_size: 50
    new_height: 256
    new_width: 256
  }
}
layer {
  name: "conv1"
  type: "Convolution"
  bottom: "data"
  top: "conv1"
  param {
    lr_mult: 0
    decay_mult: 1
  }
  param {
    lr_mult: 0
    decay_mult: 0
  }
  convolution_param {
    num_output: 96
    kernel_size: 7
    stride: 2
    weight_filler {
      type: "gaussian"
      std: 0.01
    }
    bias_filler {
      type: "constant"
      value: 0
    }
  }
}
layer {
  name: "relu1"
  type: "ReLU"
  bottom: "conv1"
  top: "conv1"
}
layer {
  name: "norm1"
  type: "LRN"
  bottom: "conv1"
  top: "norm1"
  lrn_param {
    local_size: 5
    alpha: 0.0005
    beta: 0.75
    k: 2
  }
}
layer {
  name: "pool1"
  type: "Pooling"
  bottom: "norm1"
  top: "pool1"
  pooling_param {
    pool: MAX
    kernel_size: 3
    stride: 3
  }
}
layer {
  name: "conv2"
  type: "Convolution"
  bottom: "pool1"
  top: "conv2"
  param {
    lr_mult: 0
    decay_mult: 1
  }
  param {
    lr_mult: 0
    decay_mult: 0
  }
  convolution_param {
    num_output: 256
    kernel_size: 5
    stride: 1
    weight_filler {
      type: "gaussian"
      std: 0.01
    }
    bias_filler {
      type: "constant"
      value: 0
    }
  }
}
layer {
  name: "relu2"
  type: "ReLU"
  bottom: "conv2"
  top: "conv2"
}
layer {
  name: "pool2"
  type: "Pooling"
  bottom: "conv2"
  top: "pool2"
  pooling_param {
    pool: MAX
    kernel_size: 2
    stride: 2
  }
}
layer {
  name: "conv3"
  type: "Convolution"
  bottom: "pool2"
  top: "conv3"
  param {
    lr_mult: 0
    decay_mult: 1
  }
  param {
    lr_mult: 0
    decay_mult: 0
  }
  convolution_param {
    num_output: 512
    pad: 1
    kernel_size: 3
    stride: 1
    weight_filler {
      type: "gaussian"
      std: 0.01
    }
    bias_filler {
      type: "constant"
      value: 0
    }
  }
}
layer {
  name: "relu3"
  type: "ReLU"
  bottom: "conv3"
  top: "conv3"
}
layer {
  name: "conv4"
  type: "Convolution"
  bottom: "conv3"
  top: "conv4"
  param {
    lr_mult: 0
    decay_mult: 1
  }
  param {
    lr_mult: 0
    decay_mult: 0
  }
  convolution_param {
    num_output: 512
    pad: 1
    kernel_size: 3
    stride: 1
    weight_filler {
      type: "gaussian"
      std: 0.01
    }
    bias_filler {
      type: "constant"
      value: 0
    }
  }
}
layer {
  name: "relu4"
  type: "ReLU"
  bottom: "conv4"
  top: "conv4"
}
layer {
  name: "conv5"
  type: "Convolution"
  bottom: "conv4"
  top: "conv5"
  param {
    lr_mult: 0
    decay_mult: 1
  }
  param {
    lr_mult: 0
    decay_mult: 0
  }
  convolution_param {
    num_output: 512
    pad: 1
    kernel_size: 3
    stride: 1
    weight_filler {
      type: "gaussian"
      std: 0.01
    }
    bias_filler {
      type: "constant"
      value: 0
    }
  }
}
layer {
  name: "relu5"
  type: "ReLU"
  bottom: "conv5"
  top: "conv5"
}
layer {
  name: "pool5"
  type: "Pooling"
  bottom: "conv5"
  top: "pool5"
  pooling_param {
    pool: MAX
    kernel_size: 3
    stride: 3
  }
}
layer {
  name: "fc6"
  type: "InnerProduct"
  bottom: "pool5"
  top: "fc6"
  param {
    lr_mult: 1
    decay_mult: 1
  }
  param {
    lr_mult: 2
    decay_mult: 0
  }
  inner_product_param {
    num_output: 4096
    weight_filler {
      type: "gaussian"
      std: 0.005
    }
    bias_filler {
      type: "constant"
      value: 1
    }
  }
}
layer {
  name: "relu6"
  type: "ReLU"
  bottom: "fc6"
  top: "fc6"
}
layer {
  name: "drop6"
  type: "Dropout"
  bottom: "fc6"
  top: "fc6"
  dropout_param {
    dropout_ratio: 0.5
  }
}
layer {
  name: "fc7"
  type: "InnerProduct"
  bottom: "fc6"
  top: "fc7"
  param {
    lr_mult: 1
    decay_mult: 1
  }
  param {
    lr_mult: 2
    decay_mult: 0
  }
  inner_product_param {
    num_output: 4096
    weight_filler {
      type: "gaussian"
      std: 0.005
    }
    bias_filler {
      type: "constant"
      value: 1
    }
  }
}
layer {
  name: "relu7"
  type: "ReLU"
  bottom: "fc7"
  top: "fc7"
}
layer {
  name: "drop7"
  type: "Dropout"
  bottom: "fc7"
  top: "fc7"
  dropout_param {
    dropout_ratio: 0.5
  }
}
layer {
  name: "fc8"
  type: "InnerProduct"
  bottom: "fc7"
  top: "fc8"
  param {
    lr_mult: 1
    decay_mult: 1
  }
  param {
    lr_mult: 2
    decay_mult: 0
  }
  inner_product_param {
    num_output: 102
    weight_filler {
      type: "gaussian"
      std: 0.005
    }
    bias_filler {
      type: "constant"
      value: 1
    }
  }
}
layer {
  name: "loss"
  type: "SoftmaxWithLoss"
  bottom: "fc8"
  bottom: "label"
  top: "loss"
}
I0527 21:38:43.819622 20958 layer_factory.hpp:77] Creating layer data
I0527 21:38:43.819658 20958 net.cpp:84] Creating Layer data
I0527 21:38:43.819670 20958 net.cpp:380] data -> data
I0527 21:38:43.819699 20958 net.cpp:380] data -> label
I0527 21:38:43.819718 20958 data_transformer.cpp:25] Loading mean file from: /home/stavsofe@st.technion.ac.il/caffe/data/ilsvrc12/imagenet_mean.binaryproto
I0527 21:38:43.824266 20958 image_data_layer.cpp:38] Opening file /home/stavsofe@st.technion.ac.il/caffe-oxford102/test.txt
I0527 21:38:43.826975 20958 image_data_layer.cpp:63] A total of 6149 images.
I0527 21:38:43.832554 20958 image_data_layer.cpp:90] output data size: 50,3,224,224
I0527 21:38:43.902825 20958 net.cpp:122] Setting up data
I0527 21:38:43.902886 20958 net.cpp:129] Top shape: 50 3 224 224 (7526400)
I0527 21:38:43.902895 20958 net.cpp:129] Top shape: 50 (50)
I0527 21:38:43.902899 20958 net.cpp:137] Memory required for data: 30105800
I0527 21:38:43.902909 20958 layer_factory.hpp:77] Creating layer conv1
I0527 21:38:43.902938 20958 net.cpp:84] Creating Layer conv1
I0527 21:38:43.902945 20958 net.cpp:406] conv1 <- data
I0527 21:38:43.902962 20958 net.cpp:380] conv1 -> conv1
I0527 21:38:44.074913 20958 net.cpp:122] Setting up conv1
I0527 21:38:44.074946 20958 net.cpp:129] Top shape: 50 96 109 109 (57028800)
I0527 21:38:44.074951 20958 net.cpp:137] Memory required for data: 258221000
I0527 21:38:44.074975 20958 layer_factory.hpp:77] Creating layer relu1
I0527 21:38:44.074992 20958 net.cpp:84] Creating Layer relu1
I0527 21:38:44.074998 20958 net.cpp:406] relu1 <- conv1
I0527 21:38:44.075006 20958 net.cpp:367] relu1 -> conv1 (in-place)
I0527 21:38:44.075194 20958 net.cpp:122] Setting up relu1
I0527 21:38:44.075204 20958 net.cpp:129] Top shape: 50 96 109 109 (57028800)
I0527 21:38:44.075209 20958 net.cpp:137] Memory required for data: 486336200
I0527 21:38:44.075213 20958 layer_factory.hpp:77] Creating layer norm1
I0527 21:38:44.075227 20958 net.cpp:84] Creating Layer norm1
I0527 21:38:44.075232 20958 net.cpp:406] norm1 <- conv1
I0527 21:38:44.075238 20958 net.cpp:380] norm1 -> norm1
I0527 21:38:44.075520 20958 net.cpp:122] Setting up norm1
I0527 21:38:44.075533 20958 net.cpp:129] Top shape: 50 96 109 109 (57028800)
I0527 21:38:44.075547 20958 net.cpp:137] Memory required for data: 714451400
I0527 21:38:44.075552 20958 layer_factory.hpp:77] Creating layer pool1
I0527 21:38:44.075568 20958 net.cpp:84] Creating Layer pool1
I0527 21:38:44.075598 20958 net.cpp:406] pool1 <- norm1
I0527 21:38:44.075605 20958 net.cpp:380] pool1 -> pool1
I0527 21:38:44.075660 20958 net.cpp:122] Setting up pool1
I0527 21:38:44.075669 20958 net.cpp:129] Top shape: 50 96 37 37 (6571200)
I0527 21:38:44.075672 20958 net.cpp:137] Memory required for data: 740736200
I0527 21:38:44.075676 20958 layer_factory.hpp:77] Creating layer conv2
I0527 21:38:44.075690 20958 net.cpp:84] Creating Layer conv2
I0527 21:38:44.075693 20958 net.cpp:406] conv2 <- pool1
I0527 21:38:44.075700 20958 net.cpp:380] conv2 -> conv2
I0527 21:38:44.096958 20958 net.cpp:122] Setting up conv2
I0527 21:38:44.096976 20958 net.cpp:129] Top shape: 50 256 33 33 (13939200)
I0527 21:38:44.096981 20958 net.cpp:137] Memory required for data: 796493000
I0527 21:38:44.096992 20958 layer_factory.hpp:77] Creating layer relu2
I0527 21:38:44.097000 20958 net.cpp:84] Creating Layer relu2
I0527 21:38:44.097005 20958 net.cpp:406] relu2 <- conv2
I0527 21:38:44.097012 20958 net.cpp:367] relu2 -> conv2 (in-place)
I0527 21:38:44.097205 20958 net.cpp:122] Setting up relu2
I0527 21:38:44.097216 20958 net.cpp:129] Top shape: 50 256 33 33 (13939200)
I0527 21:38:44.097220 20958 net.cpp:137] Memory required for data: 852249800
I0527 21:38:44.097224 20958 layer_factory.hpp:77] Creating layer pool2
I0527 21:38:44.097231 20958 net.cpp:84] Creating Layer pool2
I0527 21:38:44.097235 20958 net.cpp:406] pool2 <- conv2
I0527 21:38:44.097242 20958 net.cpp:380] pool2 -> pool2
I0527 21:38:44.097285 20958 net.cpp:122] Setting up pool2
I0527 21:38:44.097291 20958 net.cpp:129] Top shape: 50 256 17 17 (3699200)
I0527 21:38:44.097295 20958 net.cpp:137] Memory required for data: 867046600
I0527 21:38:44.097299 20958 layer_factory.hpp:77] Creating layer conv3
I0527 21:38:44.097311 20958 net.cpp:84] Creating Layer conv3
I0527 21:38:44.097314 20958 net.cpp:406] conv3 <- pool2
I0527 21:38:44.097321 20958 net.cpp:380] conv3 -> conv3
I0527 21:38:44.136776 20958 net.cpp:122] Setting up conv3
I0527 21:38:44.136797 20958 net.cpp:129] Top shape: 50 512 17 17 (7398400)
I0527 21:38:44.136802 20958 net.cpp:137] Memory required for data: 896640200
I0527 21:38:44.136814 20958 layer_factory.hpp:77] Creating layer relu3
I0527 21:38:44.136822 20958 net.cpp:84] Creating Layer relu3
I0527 21:38:44.136827 20958 net.cpp:406] relu3 <- conv3
I0527 21:38:44.136833 20958 net.cpp:367] relu3 -> conv3 (in-place)
I0527 21:38:44.137099 20958 net.cpp:122] Setting up relu3
I0527 21:38:44.137112 20958 net.cpp:129] Top shape: 50 512 17 17 (7398400)
I0527 21:38:44.137116 20958 net.cpp:137] Memory required for data: 926233800
I0527 21:38:44.137121 20958 layer_factory.hpp:77] Creating layer conv4
I0527 21:38:44.137135 20958 net.cpp:84] Creating Layer conv4
I0527 21:38:44.137140 20958 net.cpp:406] conv4 <- conv3
I0527 21:38:44.137148 20958 net.cpp:380] conv4 -> conv4
I0527 21:38:44.214011 20958 net.cpp:122] Setting up conv4
I0527 21:38:44.214036 20958 net.cpp:129] Top shape: 50 512 17 17 (7398400)
I0527 21:38:44.214041 20958 net.cpp:137] Memory required for data: 955827400
I0527 21:38:44.214051 20958 layer_factory.hpp:77] Creating layer relu4
I0527 21:38:44.214061 20958 net.cpp:84] Creating Layer relu4
I0527 21:38:44.214066 20958 net.cpp:406] relu4 <- conv4
I0527 21:38:44.214078 20958 net.cpp:367] relu4 -> conv4 (in-place)
I0527 21:38:44.214376 20958 net.cpp:122] Setting up relu4
I0527 21:38:44.214390 20958 net.cpp:129] Top shape: 50 512 17 17 (7398400)
I0527 21:38:44.214395 20958 net.cpp:137] Memory required for data: 985421000
I0527 21:38:44.214399 20958 layer_factory.hpp:77] Creating layer conv5
I0527 21:38:44.214423 20958 net.cpp:84] Creating Layer conv5
I0527 21:38:44.214428 20958 net.cpp:406] conv5 <- conv4
I0527 21:38:44.214437 20958 net.cpp:380] conv5 -> conv5
I0527 21:38:44.291396 20958 net.cpp:122] Setting up conv5
I0527 21:38:44.291424 20958 net.cpp:129] Top shape: 50 512 17 17 (7398400)
I0527 21:38:44.291430 20958 net.cpp:137] Memory required for data: 1015014600
I0527 21:38:44.291450 20958 layer_factory.hpp:77] Creating layer relu5
I0527 21:38:44.291494 20958 net.cpp:84] Creating Layer relu5
I0527 21:38:44.291499 20958 net.cpp:406] relu5 <- conv5
I0527 21:38:44.291507 20958 net.cpp:367] relu5 -> conv5 (in-place)
I0527 21:38:44.291728 20958 net.cpp:122] Setting up relu5
I0527 21:38:44.291738 20958 net.cpp:129] Top shape: 50 512 17 17 (7398400)
I0527 21:38:44.291743 20958 net.cpp:137] Memory required for data: 1044608200
I0527 21:38:44.291746 20958 layer_factory.hpp:77] Creating layer pool5
I0527 21:38:44.291754 20958 net.cpp:84] Creating Layer pool5
I0527 21:38:44.291759 20958 net.cpp:406] pool5 <- conv5
I0527 21:38:44.291767 20958 net.cpp:380] pool5 -> pool5
I0527 21:38:44.291815 20958 net.cpp:122] Setting up pool5
I0527 21:38:44.291823 20958 net.cpp:129] Top shape: 50 512 6 6 (921600)
I0527 21:38:44.291826 20958 net.cpp:137] Memory required for data: 1048294600
I0527 21:38:44.291831 20958 layer_factory.hpp:77] Creating layer fc6
I0527 21:38:44.291843 20958 net.cpp:84] Creating Layer fc6
I0527 21:38:44.291847 20958 net.cpp:406] fc6 <- pool5
I0527 21:38:44.291856 20958 net.cpp:380] fc6 -> fc6
I0527 21:38:46.701877 20958 net.cpp:122] Setting up fc6
I0527 21:38:46.701917 20958 net.cpp:129] Top shape: 50 4096 (204800)
I0527 21:38:46.701923 20958 net.cpp:137] Memory required for data: 1049113800
I0527 21:38:46.701936 20958 layer_factory.hpp:77] Creating layer relu6
I0527 21:38:46.701954 20958 net.cpp:84] Creating Layer relu6
I0527 21:38:46.701961 20958 net.cpp:406] relu6 <- fc6
I0527 21:38:46.701969 20958 net.cpp:367] relu6 -> fc6 (in-place)
I0527 21:38:46.702381 20958 net.cpp:122] Setting up relu6
I0527 21:38:46.702395 20958 net.cpp:129] Top shape: 50 4096 (204800)
I0527 21:38:46.702399 20958 net.cpp:137] Memory required for data: 1049933000
I0527 21:38:46.702404 20958 layer_factory.hpp:77] Creating layer drop6
I0527 21:38:46.702420 20958 net.cpp:84] Creating Layer drop6
I0527 21:38:46.702425 20958 net.cpp:406] drop6 <- fc6
I0527 21:38:46.702431 20958 net.cpp:367] drop6 -> fc6 (in-place)
I0527 21:38:46.702469 20958 net.cpp:122] Setting up drop6
I0527 21:38:46.702478 20958 net.cpp:129] Top shape: 50 4096 (204800)
I0527 21:38:46.702482 20958 net.cpp:137] Memory required for data: 1050752200
I0527 21:38:46.702486 20958 layer_factory.hpp:77] Creating layer fc7
I0527 21:38:46.702497 20958 net.cpp:84] Creating Layer fc7
I0527 21:38:46.702500 20958 net.cpp:406] fc7 <- fc6
I0527 21:38:46.702512 20958 net.cpp:380] fc7 -> fc7
I0527 21:38:47.235292 20958 net.cpp:122] Setting up fc7
I0527 21:38:47.235323 20958 net.cpp:129] Top shape: 50 4096 (204800)
I0527 21:38:47.235328 20958 net.cpp:137] Memory required for data: 1051571400
I0527 21:38:47.235338 20958 layer_factory.hpp:77] Creating layer relu7
I0527 21:38:47.235350 20958 net.cpp:84] Creating Layer relu7
I0527 21:38:47.235355 20958 net.cpp:406] relu7 <- fc7
I0527 21:38:47.235364 20958 net.cpp:367] relu7 -> fc7 (in-place)
I0527 21:38:47.235635 20958 net.cpp:122] Setting up relu7
I0527 21:38:47.235646 20958 net.cpp:129] Top shape: 50 4096 (204800)
I0527 21:38:47.235651 20958 net.cpp:137] Memory required for data: 1052390600
I0527 21:38:47.235654 20958 layer_factory.hpp:77] Creating layer drop7
I0527 21:38:47.235667 20958 net.cpp:84] Creating Layer drop7
I0527 21:38:47.235671 20958 net.cpp:406] drop7 <- fc7
I0527 21:38:47.235677 20958 net.cpp:367] drop7 -> fc7 (in-place)
I0527 21:38:47.235712 20958 net.cpp:122] Setting up drop7
I0527 21:38:47.235718 20958 net.cpp:129] Top shape: 50 4096 (204800)
I0527 21:38:47.235723 20958 net.cpp:137] Memory required for data: 1053209800
I0527 21:38:47.235726 20958 layer_factory.hpp:77] Creating layer fc8
I0527 21:38:47.235736 20958 net.cpp:84] Creating Layer fc8
I0527 21:38:47.235739 20958 net.cpp:406] fc8 <- fc7
I0527 21:38:47.235747 20958 net.cpp:380] fc8 -> fc8
I0527 21:38:47.249274 20958 net.cpp:122] Setting up fc8
I0527 21:38:47.249292 20958 net.cpp:129] Top shape: 50 102 (5100)
I0527 21:38:47.249296 20958 net.cpp:137] Memory required for data: 1053230200
I0527 21:38:47.249305 20958 layer_factory.hpp:77] Creating layer loss
I0527 21:38:47.249323 20958 net.cpp:84] Creating Layer loss
I0527 21:38:47.249354 20958 net.cpp:406] loss <- fc8
I0527 21:38:47.249361 20958 net.cpp:406] loss <- label
I0527 21:38:47.249369 20958 net.cpp:380] loss -> loss
I0527 21:38:47.249393 20958 layer_factory.hpp:77] Creating layer loss
…
I0527 21:38:47.251356 20958 net.cpp:294] The NetState phase (1) differed from the phase (0) specified by a rule in layer data
I0527 21:38:47.251600 20958 net.cpp:51] Initializing net from parameters: 
name: "VGG-CNN-S"
state {
  phase: TEST
}
layer {
  name: "data"
  type: "ImageData"
  top: "data"
  top: "label"
  include {
    phase: TEST
  }
  transform_param {
    mirror: false
    crop_size: 224
    mean_file: "/home/stavsofe@st.technion.ac.il/caffe/data/ilsvrc12/imagenet_mean.binaryproto"
  }
  image_data_param {
    source: "/home/stavsofe@st.technion.ac.il/caffe-oxford102/train.txt"
    batch_size: 50
    new_height: 256
    new_width: 256
  }
}
layer {
  name: "conv1"
  type: "Convolution"
  bottom: "data"
  top: "conv1"
  param {
    lr_mult: 0
    decay_mult: 1
  }
  param {
    lr_mult: 0
    decay_mult: 0
  }
  convolution_param {
    num_output: 96
    kernel_size: 7
    stride: 2
    weight_filler {
      type: "gaussian"
      std: 0.01
    }
    bias_filler {
      type: "constant"
      value: 0
    }
  }
}
layer {
  name: "relu1"
  type: "ReLU"
  bottom: "conv1"
  top: "conv1"
}
layer {
  name: "norm1"
  type: "LRN"
  bottom: "conv1"
  top: "norm1"
  lrn_param {
    local_size: 5
    alpha: 0.0005
    beta: 0.75
    k: 2
  }
}
layer {
  name: "pool1"
  type: "Pooling"
  bottom: "norm1"
  top: "pool1"
  pooling_param {
    pool: MAX
    kernel_size: 3
    stride: 3
  }
}
layer {
  name: "conv2"
  type: "Convolution"
  bottom: "pool1"
  top: "conv2"
  param {
    lr_mult: 0
    decay_mult: 1
  }
  param {
    lr_mult: 0
    decay_mult: 0
  }
  convolution_param {
    num_output: 256
    kernel_size: 5
    stride: 1
    weight_filler {
      type: "gaussian"
      std: 0.01
    }
    bias_filler {
      type: "constant"
      value: 0
    }
  }
}
layer {
  name: "relu2"
  type: "ReLU"
  bottom: "conv2"
  top: "conv2"
}
layer {
  name: "pool2"
  type: "Pooling"
  bottom: "conv2"
  top: "pool2"
  pooling_param {
    pool: MAX
    kernel_size: 2
    stride: 2
  }
}
layer {
  name: "conv3"
  type: "Convolution"
  bottom: "pool2"
  top: "conv3"
  param {
    lr_mult: 0
    decay_mult: 1
  }
  param {
    lr_mult: 0
    decay_mult: 0
  }
  convolution_param {
    num_output: 512
    pad: 1
    kernel_size: 3
    stride: 1
    weight_filler {
      type: "gaussian"
      std: 0.01
    }
    bias_filler {
      type: "constant"
      value: 0
    }
  }
}
layer {
  name: "relu3"
  type: "ReLU"
  bottom: "conv3"
  top: "conv3"
}
layer {
  name: "conv4"
  type: "Convolution"
  bottom: "conv3"
  top: "conv4"
  param {
    lr_mult: 0
    decay_mult: 1
  }
  param {
    lr_mult: 0
    decay_mult: 0
  }
  convolution_param {
    num_output: 512
    pad: 1
    kernel_size: 3
    stride: 1
    weight_filler {
      type: "gaussian"
      std: 0.01
    }
    bias_filler {
      type: "constant"
      value: 0
    }
  }
}
layer {
  name: "relu4"
  type: "ReLU"
  bottom: "conv4"
  top: "conv4"
}
layer {
  name: "conv5"
  type: "Convolution"
  bottom: "conv4"
  top: "conv5"
  param {
    lr_mult: 0
    decay_mult: 1
  }
  param {
    lr_mult: 0
    decay_mult: 0
  }
  convolution_param {
    num_output: 512
    pad: 1
    kernel_size: 3
    stride: 1
    weight_filler {
      type: "gaussian"
      std: 0.01
    }
    bias_filler {
      type: "constant"
      value: 0
    }
  }
}
layer {
  name: "relu5"
  type: "ReLU"
  bottom: "conv5"
  top: "conv5"
}
layer {
  name: "pool5"
  type: "Pooling"
  bottom: "conv5"
  top: "pool5"
  pooling_param {
    pool: MAX
    kernel_size: 3
    stride: 3
  }
}
layer {
  name: "fc6"
  type: "InnerProduct"
  bottom: "pool5"
  top: "fc6"
  param {
    lr_mult: 1
    decay_mult: 1
  }
  param {
    lr_mult: 2
    decay_mult: 0
  }
  inner_product_param {
    num_output: 4096
    weight_filler {
      type: "gaussian"
      std: 0.005
    }
    bias_filler {
      type: "constant"
      value: 1
    }
  }
}
layer {
  name: "relu6"
  type: "ReLU"
  bottom: "fc6"
  top: "fc6"
}
layer {
  name: "drop6"
  type: "Dropout"
  bottom: "fc6"
  top: "fc6"
  dropout_param {
    dropout_ratio: 0.5
  }
}
layer {
  name: "fc7"
  type: "InnerProduct"
  bottom: "fc6"
  top: "fc7"
  param {
    lr_mult: 1
    decay_mult: 1
  }
  param {
    lr_mult: 2
    decay_mult: 0
  }
  inner_product_param {
    num_output: 4096
    weight_filler {
      type: "gaussian"
      std: 0.005
    }
    bias_filler {
      type: "constant"
      value: 1
    }
  }
}
layer {
  name: "relu7"
  type: "ReLU"
  bottom: "fc7"
  top: "fc7"
}
layer {
  name: "drop7"
  type: "Dropout"
  bottom: "fc7"
  top: "fc7"
  dropout_param {
    dropout_ratio: 0.5
  }
}
layer {
  name: "fc8"
  type: "InnerProduct"
  bottom: "fc7"
  top: "fc8"
  param {
    lr_mult: 1
    decay_mult: 1
  }
  param {
    lr_mult: 2
    decay_mult: 0
  }
  inner_product_param {
    num_output: 102
    weight_filler {
      type: "gaussian"
      std: 0.005
    }
    bias_filler {
      type: "constant"
      value: 1
    }
  }
}
layer {
  name: "accuracy"
  type: "Accuracy"
  bottom: "fc8"
  bottom: "label"
  top: "accuracy"
  include {
    phase: TEST
  }
  accuracy_param {
    top_k: 5
  }
}
layer {
  name: "loss"
  type: "SoftmaxWithLoss"
  bottom: "fc8"
  bottom: "label"
  top: "loss"
}
I0527 21:38:47.251765 20958 layer_factory.hpp:77] Creating layer data
I0527 21:38:47.251783 20958 net.cpp:84] Creating Layer data
I0527 21:38:47.251788 20958 net.cpp:380] data -> data
I0527 21:38:47.251799 20958 net.cpp:380] data -> label
I0527 21:38:47.251808 20958 data_transformer.cpp:25] Loading mean file from: /home/stavsofe@st.technion.ac.il/caffe/data/ilsvrc12/imagenet_mean.binaryproto
I0527 21:38:47.254578 20958 image_data_layer.cpp:38] Opening file /home/stavsofe@st.technion.ac.il/caffe-oxford102/train.txt
I0527 21:38:47.255267 20958 image_data_layer.cpp:63] A total of 1020 images.
I0527 21:38:47.259611 20958 image_data_layer.cpp:90] output data size: 50,3,224,224
I0527 21:38:47.328928 20958 net.cpp:122] Setting up data
I0527 21:38:47.328970 20958 net.cpp:129] Top shape: 50 3 224 224 (7526400)
I0527 21:38:47.328977 20958 net.cpp:129] Top shape: 50 (50)
I0527 21:38:47.328982 20958 net.cpp:137] Memory required for data: 30105800
I0527 21:38:47.328989 20958 layer_factory.hpp:77] Creating layer label_data_1_split
I0527 21:38:47.329010 20958 net.cpp:84] Creating Layer label_data_1_split
I0527 21:38:47.329016 20958 net.cpp:406] label_data_1_split <- label
I0527 21:38:47.329025 20958 net.cpp:380] label_data_1_split -> label_data_1_split_0
I0527 21:38:47.329038 20958 net.cpp:380] label_data_1_split -> label_data_1_split_1
I0527 21:38:47.329113 20958 net.cpp:122] Setting up label_data_1_split
I0527 21:38:47.329120 20958 net.cpp:129] Top shape: 50 (50)
I0527 21:38:47.329125 20958 net.cpp:129] Top shape: 50 (50)
I0527 21:38:47.329129 20958 net.cpp:137] Memory required for data: 30106200
I0527 21:38:47.329133 20958 layer_factory.hpp:77] Creating layer conv1
I0527 21:38:47.329149 20958 net.cpp:84] Creating Layer conv1
I0527 21:38:47.329154 20958 net.cpp:406] conv1 <- data
I0527 21:38:47.329162 20958 net.cpp:380] conv1 -> conv1
I0527 21:38:47.331039 20958 net.cpp:122] Setting up conv1
I0527 21:38:47.331058 20958 net.cpp:129] Top shape: 50 96 109 109 (57028800)
I0527 21:38:47.331063 20958 net.cpp:137] Memory required for data: 258221400
I0527 21:38:47.331076 20958 layer_factory.hpp:77] Creating layer relu1
I0527 21:38:47.331085 20958 net.cpp:84] Creating Layer relu1
I0527 21:38:47.331090 20958 net.cpp:406] relu1 <- conv1
I0527 21:38:47.331097 20958 net.cpp:367] relu1 -> conv1 (in-place)
I0527 21:38:47.331281 20958 net.cpp:122] Setting up relu1
I0527 21:38:47.331291 20958 net.cpp:129] Top shape: 50 96 109 109 (57028800)
I0527 21:38:47.331295 20958 net.cpp:137] Memory required for data: 486336600
I0527 21:38:47.331300 20958 layer_factory.hpp:77] Creating layer norm1
I0527 21:38:47.331310 20958 net.cpp:84] Creating Layer norm1
I0527 21:38:47.331315 20958 net.cpp:406] norm1 <- conv1
I0527 21:38:47.331321 20958 net.cpp:380] norm1 -> norm1
I0527 21:38:47.331640 20958 net.cpp:122] Setting up norm1
I0527 21:38:47.331655 20958 net.cpp:129] Top shape: 50 96 109 109 (57028800)
I0527 21:38:47.331658 20958 net.cpp:137] Memory required for data: 714451800
I0527 21:38:47.331663 20958 layer_factory.hpp:77] Creating layer pool1
I0527 21:38:47.331672 20958 net.cpp:84] Creating Layer pool1
I0527 21:38:47.331676 20958 net.cpp:406] pool1 <- norm1
I0527 21:38:47.331684 20958 net.cpp:380] pool1 -> pool1
I0527 21:38:47.331727 20958 net.cpp:122] Setting up pool1
I0527 21:38:47.331733 20958 net.cpp:129] Top shape: 50 96 37 37 (6571200)
I0527 21:38:47.331737 20958 net.cpp:137] Memory required for data: 740736600
I0527 21:38:47.331740 20958 layer_factory.hpp:77] Creating layer conv2
I0527 21:38:47.331751 20958 net.cpp:84] Creating Layer conv2
I0527 21:38:47.331755 20958 net.cpp:406] conv2 <- pool1
I0527 21:38:47.331763 20958 net.cpp:380] conv2 -> conv2
I0527 21:38:47.352706 20958 net.cpp:122] Setting up conv2
I0527 21:38:47.352725 20958 net.cpp:129] Top shape: 50 256 33 33 (13939200)
I0527 21:38:47.352730 20958 net.cpp:137] Memory required for data: 796493400
I0527 21:38:47.352743 20958 layer_factory.hpp:77] Creating layer relu2
I0527 21:38:47.352753 20958 net.cpp:84] Creating Layer relu2
I0527 21:38:47.352757 20958 net.cpp:406] relu2 <- conv2
I0527 21:38:47.352766 20958 net.cpp:367] relu2 -> conv2 (in-place)
I0527 21:38:47.352952 20958 net.cpp:122] Setting up relu2
I0527 21:38:47.352962 20958 net.cpp:129] Top shape: 50 256 33 33 (13939200)
I0527 21:38:47.352967 20958 net.cpp:137] Memory required for data: 852250200
I0527 21:38:47.352970 20958 layer_factory.hpp:77] Creating layer pool2
I0527 21:38:47.352985 20958 net.cpp:84] Creating Layer pool2
I0527 21:38:47.353014 20958 net.cpp:406] pool2 <- conv2
I0527 21:38:47.353022 20958 net.cpp:380] pool2 -> pool2
I0527 21:38:47.353073 20958 net.cpp:122] Setting up pool2
I0527 21:38:47.353081 20958 net.cpp:129] Top shape: 50 256 17 17 (3699200)
I0527 21:38:47.353085 20958 net.cpp:137] Memory required for data: 867047000
I0527 21:38:47.353088 20958 layer_factory.hpp:77] Creating layer conv3
I0527 21:38:47.353101 20958 net.cpp:84] Creating Layer conv3
I0527 21:38:47.353104 20958 net.cpp:406] conv3 <- pool2
I0527 21:38:47.353112 20958 net.cpp:380] conv3 -> conv3
I0527 21:38:47.392339 20958 net.cpp:122] Setting up conv3
I0527 21:38:47.392359 20958 net.cpp:129] Top shape: 50 512 17 17 (7398400)
I0527 21:38:47.392364 20958 net.cpp:137] Memory required for data: 896640600
I0527 21:38:47.392376 20958 layer_factory.hpp:77] Creating layer relu3
I0527 21:38:47.392385 20958 net.cpp:84] Creating Layer relu3
I0527 21:38:47.392390 20958 net.cpp:406] relu3 <- conv3
I0527 21:38:47.392398 20958 net.cpp:367] relu3 -> conv3 (in-place)
I0527 21:38:47.392592 20958 net.cpp:122] Setting up relu3
I0527 21:38:47.392603 20958 net.cpp:129] Top shape: 50 512 17 17 (7398400)
I0527 21:38:47.392607 20958 net.cpp:137] Memory required for data: 926234200
I0527 21:38:47.392611 20958 layer_factory.hpp:77] Creating layer conv4
I0527 21:38:47.392624 20958 net.cpp:84] Creating Layer conv4
I0527 21:38:47.392628 20958 net.cpp:406] conv4 <- conv3
I0527 21:38:47.392635 20958 net.cpp:380] conv4 -> conv4
I0527 21:38:47.469709 20958 net.cpp:122] Setting up conv4
I0527 21:38:47.469738 20958 net.cpp:129] Top shape: 50 512 17 17 (7398400)
I0527 21:38:47.469741 20958 net.cpp:137] Memory required for data: 955827800
I0527 21:38:47.469750 20958 layer_factory.hpp:77] Creating layer relu4
I0527 21:38:47.469761 20958 net.cpp:84] Creating Layer relu4
I0527 21:38:47.469768 20958 net.cpp:406] relu4 <- conv4
I0527 21:38:47.469775 20958 net.cpp:367] relu4 -> conv4 (in-place)
I0527 21:38:47.470057 20958 net.cpp:122] Setting up relu4
I0527 21:38:47.470072 20958 net.cpp:129] Top shape: 50 512 17 17 (7398400)
I0527 21:38:47.470075 20958 net.cpp:137] Memory required for data: 985421400
I0527 21:38:47.470080 20958 layer_factory.hpp:77] Creating layer conv5
I0527 21:38:47.470094 20958 net.cpp:84] Creating Layer conv5
I0527 21:38:47.470100 20958 net.cpp:406] conv5 <- conv4
I0527 21:38:47.470109 20958 net.cpp:380] conv5 -> conv5
I0527 21:38:47.546952 20958 net.cpp:122] Setting up conv5
I0527 21:38:47.546978 20958 net.cpp:129] Top shape: 50 512 17 17 (7398400)
I0527 21:38:47.546983 20958 net.cpp:137] Memory required for data: 1015015000
I0527 21:38:47.546998 20958 layer_factory.hpp:77] Creating layer relu5
I0527 21:38:47.547010 20958 net.cpp:84] Creating Layer relu5
I0527 21:38:47.547016 20958 net.cpp:406] relu5 <- conv5
I0527 21:38:47.547024 20958 net.cpp:367] relu5 -> conv5 (in-place)
I0527 21:38:47.547215 20958 net.cpp:122] Setting up relu5
I0527 21:38:47.547225 20958 net.cpp:129] Top shape: 50 512 17 17 (7398400)
I0527 21:38:47.547230 20958 net.cpp:137] Memory required for data: 1044608600
I0527 21:38:47.547235 20958 layer_factory.hpp:77] Creating layer pool5
I0527 21:38:47.547243 20958 net.cpp:84] Creating Layer pool5
I0527 21:38:47.547247 20958 net.cpp:406] pool5 <- conv5
I0527 21:38:47.547255 20958 net.cpp:380] pool5 -> pool5
I0527 21:38:47.547304 20958 net.cpp:122] Setting up pool5
I0527 21:38:47.547312 20958 net.cpp:129] Top shape: 50 512 6 6 (921600)
I0527 21:38:47.547315 20958 net.cpp:137] Memory required for data: 1048295000
I0527 21:38:47.547319 20958 layer_factory.hpp:77] Creating layer fc6
I0527 21:38:47.547333 20958 net.cpp:84] Creating Layer fc6
I0527 21:38:47.547338 20958 net.cpp:406] fc6 <- pool5
I0527 21:38:47.547345 20958 net.cpp:380] fc6 -> fc6
I0527 21:38:49.945037 20958 net.cpp:122] Setting up fc6
I0527 21:38:49.945080 20958 net.cpp:129] Top shape: 50 4096 (204800)
I0527 21:38:49.945085 20958 net.cpp:137] Memory required for data: 1049114200
I0527 21:38:49.945094 20958 layer_factory.hpp:77] Creating layer relu6
I0527 21:38:49.945114 20958 net.cpp:84] Creating Layer relu6
I0527 21:38:49.945147 20958 net.cpp:406] relu6 <- fc6
I0527 21:38:49.945158 20958 net.cpp:367] relu6 -> fc6 (in-place)
I0527 21:38:49.945587 20958 net.cpp:122] Setting up relu6
I0527 21:38:49.945602 20958 net.cpp:129] Top shape: 50 4096 (204800)
I0527 21:38:49.945606 20958 net.cpp:137] Memory required for data: 1049933400
I0527 21:38:49.945611 20958 layer_factory.hpp:77] Creating layer drop6
I0527 21:38:49.945621 20958 net.cpp:84] Creating Layer drop6
I0527 21:38:49.945626 20958 net.cpp:406] drop6 <- fc6
I0527 21:38:49.945632 20958 net.cpp:367] drop6 -> fc6 (in-place)
I0527 21:38:49.945670 20958 net.cpp:122] Setting up drop6
I0527 21:38:49.945677 20958 net.cpp:129] Top shape: 50 4096 (204800)
I0527 21:38:49.945680 20958 net.cpp:137] Memory required for data: 1050752600
I0527 21:38:49.945684 20958 layer_factory.hpp:77] Creating layer fc7
I0527 21:38:49.945694 20958 net.cpp:84] Creating Layer fc7
I0527 21:38:49.945698 20958 net.cpp:406] fc7 <- fc6
I0527 21:38:49.945705 20958 net.cpp:380] fc7 -> fc7
I0527 21:38:50.478574 20958 net.cpp:122] Setting up fc7
I0527 21:38:50.478615 20958 net.cpp:129] Top shape: 50 4096 (204800)
I0527 21:38:50.478619 20958 net.cpp:137] Memory required for data: 1051571800
I0527 21:38:50.478631 20958 layer_factory.hpp:77] Creating layer relu7
I0527 21:38:50.478644 20958 net.cpp:84] Creating Layer relu7
I0527 21:38:50.478652 20958 net.cpp:406] relu7 <- fc7
I0527 21:38:50.478660 20958 net.cpp:367] relu7 -> fc7 (in-place)
I0527 21:38:50.478920 20958 net.cpp:122] Setting up relu7
I0527 21:38:50.478931 20958 net.cpp:129] Top shape: 50 4096 (204800)
I0527 21:38:50.478935 20958 net.cpp:137] Memory required for data: 1052391000
I0527 21:38:50.478940 20958 layer_factory.hpp:77] Creating layer drop7
I0527 21:38:50.478950 20958 net.cpp:84] Creating Layer drop7
I0527 21:38:50.478955 20958 net.cpp:406] drop7 <- fc7
I0527 21:38:50.478961 20958 net.cpp:367] drop7 -> fc7 (in-place)
I0527 21:38:50.478994 20958 net.cpp:122] Setting up drop7
I0527 21:38:50.479001 20958 net.cpp:129] Top shape: 50 4096 (204800)
I0527 21:38:50.479005 20958 net.cpp:137] Memory required for data: 1053210200
I0527 21:38:50.479009 20958 layer_factory.hpp:77] Creating layer fc8
I0527 21:38:50.479020 20958 net.cpp:84] Creating Layer fc8
I0527 21:38:50.479024 20958 net.cpp:406] fc8 <- fc7
I0527 21:38:50.479032 20958 net.cpp:380] fc8 -> fc8
I0527 21:38:50.492516 20958 net.cpp:122] Setting up fc8
I0527 21:38:50.492530 20958 net.cpp:129] Top shape: 50 102 (5100)
I0527 21:38:50.492534 20958 net.cpp:137] Memory required for data: 1053230600
I0527 21:38:50.492548 20958 layer_factory.hpp:77] Creating layer fc8_fc8_0_split
I0527 21:38:50.492558 20958 net.cpp:84] Creating Layer fc8_fc8_0_split
I0527 21:38:50.492563 20958 net.cpp:406] fc8_fc8_0_split <- fc8
I0527 21:38:50.492570 20958 net.cpp:380] fc8_fc8_0_split -> fc8_fc8_0_split_0
I0527 21:38:50.492583 20958 net.cpp:380] fc8_fc8_0_split -> fc8_fc8_0_split_1
I0527 21:38:50.492630 20958 net.cpp:122] Setting up fc8_fc8_0_split
I0527 21:38:50.492640 20958 net.cpp:129] Top shape: 50 102 (5100)
I0527 21:38:50.492645 20958 net.cpp:129] Top shape: 50 102 (5100)
I0527 21:38:50.492648 20958 net.cpp:137] Memory required for data: 1053271400
I0527 21:38:50.492652 20958 layer_factory.hpp:77] Creating layer accuracy
I0527 21:38:50.492667 20958 net.cpp:84] Creating Layer accuracy
I0527 21:38:50.492671 20958 net.cpp:406] accuracy <- fc8_fc8_0_split_0
I0527 21:38:50.492677 20958 net.cpp:406] accuracy <- label_data_1_split_0
I0527 21:38:50.492684 20958 net.cpp:380] accuracy -> accuracy
…
