…
I0507 16:18:54.884917  7075 net.cpp:51] Initializing net from parameters: 
name: "Oxford102_CaffeNet"
state {
  phase: TRAIN
  level: 0
  stage: ""
}
layer {
  name: "data"
  type: "ImageData"
  top: "data"
  top: "label"
  include {
    phase: TRAIN
  }
  transform_param {
    mirror: true
    crop_size: 227
    mean_file: "/home/stavsofe@st.technion.ac.il/caffe/data/ilsvrc12/imagenet_mean.binaryproto"
  }
  image_data_param {
    source: "/home/stavsofe@st.technion.ac.il/caffe-oxford102/test.txt"
    batch_size: 50
    new_height: 256
    new_width: 256
  }
}
layer {
  name: "conv1"
  type: "Convolution"
  bottom: "data"
  top: "conv1"
  param {
    lr_mult: 1
    decay_mult: 1
  }
  param {
    lr_mult: 2
    decay_mult: 0
  }
  convolution_param {
    num_output: 96
    kernel_size: 11
    stride: 4
    weight_filler {
      type: "gaussian"
      std: 0.01
    }
    bias_filler {
      type: "constant"
      value: 0
    }
  }
}
layer {
  name: "relu1"
  type: "ReLU"
  bottom: "conv1"
  top: "conv1"
}
layer {
  name: "pool1"
  type: "Pooling"
  bottom: "conv1"
  top: "pool1"
  pooling_param {
    pool: MAX
    kernel_size: 3
    stride: 2
  }
}
layer {
  name: "norm1"
  type: "LRN"
  bottom: "pool1"
  top: "norm1"
  lrn_param {
    local_size: 5
    alpha: 0.0001
    beta: 0.75
  }
}
layer {
  name: "conv2"
  type: "Convolution"
  bottom: "norm1"
  top: "conv2"
  param {
    lr_mult: 1
    decay_mult: 1
  }
  param {
    lr_mult: 2
    decay_mult: 0
  }
  convolution_param {
    num_output: 256
    pad: 2
    kernel_size: 5
    group: 2
    weight_filler {
      type: "gaussian"
      std: 0.01
    }
    bias_filler {
      type: "constant"
      value: 1
    }
  }
}
layer {
  name: "relu2"
  type: "ReLU"
  bottom: "conv2"
  top: "conv2"
}
layer {
  name: "pool2"
  type: "Pooling"
  bottom: "conv2"
  top: "pool2"
  pooling_param {
    pool: MAX
    kernel_size: 3
    stride: 2
  }
}
layer {
  name: "norm2"
  type: "LRN"
  bottom: "pool2"
  top: "norm2"
  lrn_param {
    local_size: 5
    alpha: 0.0001
    beta: 0.75
  }
}
layer {
  name: "conv3"
  type: "Convolution"
  bottom: "norm2"
  top: "conv3"
  param {
    lr_mult: 1
    decay_mult: 1
  }
  param {
    lr_mult: 2
    decay_mult: 0
  }
  convolution_param {
    num_output: 384
    pad: 1
    kernel_size: 3
    weight_filler {
      type: "gaussian"
      std: 0.01
    }
    bias_filler {
      type: "constant"
      value: 0
    }
  }
}
layer {
  name: "relu3"
  type: "ReLU"
  bottom: "conv3"
  top: "conv3"
}
layer {
  name: "conv4"
  type: "Convolution"
  bottom: "conv3"
  top: "conv4"
  param {
    lr_mult: 1
    decay_mult: 1
  }
  param {
    lr_mult: 2
    decay_mult: 0
  }
  convolution_param {
    num_output: 384
    pad: 1
    kernel_size: 3
    group: 2
    weight_filler {
      type: "gaussian"
      std: 0.01
    }
    bias_filler {
      type: "constant"
      value: 1
    }
  }
}
layer {
  name: "relu4"
  type: "ReLU"
  bottom: "conv4"
  top: "conv4"
}
layer {
  name: "conv5"
  type: "Convolution"
  bottom: "conv4"
  top: "conv5"
  param {
    lr_mult: 1
    decay_mult: 1
  }
  param {
    lr_mult: 2
    decay_mult: 0
  }
  convolution_param {
    num_output: 256
    pad: 1
    kernel_size: 3
    group: 2
    weight_filler {
      type: "gaussian"
      std: 0.01
    }
    bias_filler {
      type: "constant"
      value: 1
    }
  }
}
layer {
  name: "relu5"
  type: "ReLU"
  bottom: "conv5"
  top: "conv5"
}
layer {
  name: "pool5"
  type: "Pooling"
  bottom: "conv5"
  top: "pool5"
  pooling_param {
    pool: MAX
    kernel_size: 3
    stride: 2
  }
}
layer {
  name: "fc6"
  type: "InnerProduct"
  bottom: "pool5"
  top: "fc6"
  param {
    lr_mult: 1
    decay_mult: 1
  }
  param {
    lr_mult: 2
    decay_mult: 0
  }
  inner_product_param {
    num_output: 4096
    weight_filler {
      type: "gaussian"
      std: 0.005
    }
    bias_filler {
      type: "constant"
      value: 1
    }
  }
}
layer {
  name: "relu6"
  type: "ReLU"
  bottom: "fc6"
  top: "fc6"
}
layer {
  name: "drop6"
  type: "Dropout"
  bottom: "fc6"
  top: "fc6"
  dropout_param {
    dropout_ratio: 0.5
  }
}
layer {
  name: "fc7"
  type: "InnerProduct"
  bottom: "fc6"
  top: "fc7"
  param {
    lr_mult: 1
    decay_mult: 1
  }
  param {
    lr_mult: 2
    decay_mult: 0
  }
  inner_product_param {
    num_output: 4096
    weight_filler {
      type: "gaussian"
      std: 0.005
    }
    bias_filler {
      type: "constant"
      value: 1
    }
  }
}
layer {
  name: "relu7"
  type: "ReLU"
  bottom: "fc7"
  top: "fc7"
}
layer {
  name: "drop7"
  type: "Dropout"
  bottom: "fc7"
  top: "fc7"
  dropout_param {
    dropout_ratio: 0.5
  }
}
layer {
  name: "fc8_oxford_102"
  type: "InnerProduct"
  bottom: "fc7"
  top: "fc8_oxford_102"
  param {
    lr_mult: 10
    decay_mult: 1
  }
  param {
    lr_mult: 20
    decay_mult: 0
  }
  inner_product_param {
    num_output: 102
    weight_filler {
      type: "gaussian"
      std: 0.01
    }
    bias_filler {
      type: "constant"
      value: 0
    }
  }
}
layer {
  name: "loss"
  type: "SoftmaxWithLoss"
  bottom: "fc8_oxford_102"
  bottom: "label"
}
I0507 16:18:54.885082  7075 layer_factory.hpp:77] Creating layer data
I0507 16:18:54.885120  7075 net.cpp:84] Creating Layer data
I0507 16:18:54.885133  7075 net.cpp:380] data -> data
I0507 16:18:54.885157  7075 net.cpp:380] data -> label
I0507 16:18:54.885177  7075 data_transformer.cpp:25] Loading mean file from: /home/stavsofe@st.technion.ac.il/caffe/data/ilsvrc12/imagenet_mean.binaryproto
I0507 16:18:54.890144  7075 image_data_layer.cpp:38] Opening file /home/stavsofe@st.technion.ac.il/caffe-oxford102/test.txt
I0507 16:18:54.893476  7075 image_data_layer.cpp:63] A total of 6149 images.
I0507 16:18:55.089673  7075 image_data_layer.cpp:90] output data size: 50,3,227,227
I0507 16:18:55.170655  7075 net.cpp:122] Setting up data
I0507 16:18:55.170711  7075 net.cpp:129] Top shape: 50 3 227 227 (7729350)
I0507 16:18:55.170719  7075 net.cpp:129] Top shape: 50 (50)
I0507 16:18:55.170723  7075 net.cpp:137] Memory required for data: 30917600
I0507 16:18:55.170732  7075 layer_factory.hpp:77] Creating layer conv1
I0507 16:18:55.170760  7075 net.cpp:84] Creating Layer conv1
I0507 16:18:55.170768  7075 net.cpp:406] conv1 <- data
I0507 16:18:55.170786  7075 net.cpp:380] conv1 -> conv1
I0507 16:18:55.326512  7075 net.cpp:122] Setting up conv1
I0507 16:18:55.326552  7075 net.cpp:129] Top shape: 50 96 55 55 (14520000)
I0507 16:18:55.326558  7075 net.cpp:137] Memory required for data: 88997600
I0507 16:18:55.326583  7075 layer_factory.hpp:77] Creating layer relu1
I0507 16:18:55.326601  7075 net.cpp:84] Creating Layer relu1
I0507 16:18:55.326606  7075 net.cpp:406] relu1 <- conv1
I0507 16:18:55.326614  7075 net.cpp:367] relu1 -> conv1 (in-place)
I0507 16:18:55.326804  7075 net.cpp:122] Setting up relu1
I0507 16:18:55.326814  7075 net.cpp:129] Top shape: 50 96 55 55 (14520000)
I0507 16:18:55.326819  7075 net.cpp:137] Memory required for data: 147077600
I0507 16:18:55.326823  7075 layer_factory.hpp:77] Creating layer pool1
I0507 16:18:55.326831  7075 net.cpp:84] Creating Layer pool1
I0507 16:18:55.326841  7075 net.cpp:406] pool1 <- conv1
I0507 16:18:55.326872  7075 net.cpp:380] pool1 -> pool1
I0507 16:18:55.326936  7075 net.cpp:122] Setting up pool1
I0507 16:18:55.326942  7075 net.cpp:129] Top shape: 50 96 27 27 (3499200)
I0507 16:18:55.326946  7075 net.cpp:137] Memory required for data: 161074400
I0507 16:18:55.326951  7075 layer_factory.hpp:77] Creating layer norm1
I0507 16:18:55.326963  7075 net.cpp:84] Creating Layer norm1
I0507 16:18:55.326967  7075 net.cpp:406] norm1 <- pool1
I0507 16:18:55.326973  7075 net.cpp:380] norm1 -> norm1
I0507 16:18:55.327278  7075 net.cpp:122] Setting up norm1
I0507 16:18:55.327291  7075 net.cpp:129] Top shape: 50 96 27 27 (3499200)
I0507 16:18:55.327296  7075 net.cpp:137] Memory required for data: 175071200
I0507 16:18:55.327301  7075 layer_factory.hpp:77] Creating layer conv2
I0507 16:18:55.327316  7075 net.cpp:84] Creating Layer conv2
I0507 16:18:55.327320  7075 net.cpp:406] conv2 <- norm1
I0507 16:18:55.327327  7075 net.cpp:380] conv2 -> conv2
I0507 16:18:55.339231  7075 net.cpp:122] Setting up conv2
I0507 16:18:55.339262  7075 net.cpp:129] Top shape: 50 256 27 27 (9331200)
I0507 16:18:55.339267  7075 net.cpp:137] Memory required for data: 212396000
I0507 16:18:55.339278  7075 layer_factory.hpp:77] Creating layer relu2
I0507 16:18:55.339292  7075 net.cpp:84] Creating Layer relu2
I0507 16:18:55.339296  7075 net.cpp:406] relu2 <- conv2
I0507 16:18:55.339303  7075 net.cpp:367] relu2 -> conv2 (in-place)
I0507 16:18:55.339498  7075 net.cpp:122] Setting up relu2
I0507 16:18:55.339507  7075 net.cpp:129] Top shape: 50 256 27 27 (9331200)
I0507 16:18:55.339512  7075 net.cpp:137] Memory required for data: 249720800
I0507 16:18:55.339516  7075 layer_factory.hpp:77] Creating layer pool2
I0507 16:18:55.339524  7075 net.cpp:84] Creating Layer pool2
I0507 16:18:55.339529  7075 net.cpp:406] pool2 <- conv2
I0507 16:18:55.339536  7075 net.cpp:380] pool2 -> pool2
I0507 16:18:55.339582  7075 net.cpp:122] Setting up pool2
I0507 16:18:55.339589  7075 net.cpp:129] Top shape: 50 256 13 13 (2163200)
I0507 16:18:55.339593  7075 net.cpp:137] Memory required for data: 258373600
I0507 16:18:55.339597  7075 layer_factory.hpp:77] Creating layer norm2
I0507 16:18:55.339607  7075 net.cpp:84] Creating Layer norm2
I0507 16:18:55.339612  7075 net.cpp:406] norm2 <- pool2
I0507 16:18:55.339618  7075 net.cpp:380] norm2 -> norm2
I0507 16:18:55.339910  7075 net.cpp:122] Setting up norm2
I0507 16:18:55.339923  7075 net.cpp:129] Top shape: 50 256 13 13 (2163200)
I0507 16:18:55.339928  7075 net.cpp:137] Memory required for data: 267026400
I0507 16:18:55.339932  7075 layer_factory.hpp:77] Creating layer conv3
I0507 16:18:55.339946  7075 net.cpp:84] Creating Layer conv3
I0507 16:18:55.339951  7075 net.cpp:406] conv3 <- norm2
I0507 16:18:55.339959  7075 net.cpp:380] conv3 -> conv3
I0507 16:18:55.369424  7075 net.cpp:122] Setting up conv3
I0507 16:18:55.369460  7075 net.cpp:129] Top shape: 50 384 13 13 (3244800)
I0507 16:18:55.369465  7075 net.cpp:137] Memory required for data: 280005600
I0507 16:18:55.369482  7075 layer_factory.hpp:77] Creating layer relu3
I0507 16:18:55.369494  7075 net.cpp:84] Creating Layer relu3
I0507 16:18:55.369500  7075 net.cpp:406] relu3 <- conv3
I0507 16:18:55.369508  7075 net.cpp:367] relu3 -> conv3 (in-place)
I0507 16:18:55.369777  7075 net.cpp:122] Setting up relu3
I0507 16:18:55.369791  7075 net.cpp:129] Top shape: 50 384 13 13 (3244800)
I0507 16:18:55.369794  7075 net.cpp:137] Memory required for data: 292984800
I0507 16:18:55.369799  7075 layer_factory.hpp:77] Creating layer conv4
I0507 16:18:55.369814  7075 net.cpp:84] Creating Layer conv4
I0507 16:18:55.369818  7075 net.cpp:406] conv4 <- conv3
I0507 16:18:55.369828  7075 net.cpp:380] conv4 -> conv4
I0507 16:18:55.392613  7075 net.cpp:122] Setting up conv4
I0507 16:18:55.392643  7075 net.cpp:129] Top shape: 50 384 13 13 (3244800)
I0507 16:18:55.392648  7075 net.cpp:137] Memory required for data: 305964000
I0507 16:18:55.392658  7075 layer_factory.hpp:77] Creating layer relu4
I0507 16:18:55.392670  7075 net.cpp:84] Creating Layer relu4
I0507 16:18:55.392705  7075 net.cpp:406] relu4 <- conv4
I0507 16:18:55.392714  7075 net.cpp:367] relu4 -> conv4 (in-place)
I0507 16:18:55.392905  7075 net.cpp:122] Setting up relu4
I0507 16:18:55.392915  7075 net.cpp:129] Top shape: 50 384 13 13 (3244800)
I0507 16:18:55.392920  7075 net.cpp:137] Memory required for data: 318943200
I0507 16:18:55.392925  7075 layer_factory.hpp:77] Creating layer conv5
I0507 16:18:55.392938  7075 net.cpp:84] Creating Layer conv5
I0507 16:18:55.392942  7075 net.cpp:406] conv5 <- conv4
I0507 16:18:55.392951  7075 net.cpp:380] conv5 -> conv5
I0507 16:18:55.408851  7075 net.cpp:122] Setting up conv5
I0507 16:18:55.408871  7075 net.cpp:129] Top shape: 50 256 13 13 (2163200)
I0507 16:18:55.408876  7075 net.cpp:137] Memory required for data: 327596000
I0507 16:18:55.408891  7075 layer_factory.hpp:77] Creating layer relu5
I0507 16:18:55.408901  7075 net.cpp:84] Creating Layer relu5
I0507 16:18:55.408906  7075 net.cpp:406] relu5 <- conv5
I0507 16:18:55.408913  7075 net.cpp:367] relu5 -> conv5 (in-place)
I0507 16:18:55.409101  7075 net.cpp:122] Setting up relu5
I0507 16:18:55.409111  7075 net.cpp:129] Top shape: 50 256 13 13 (2163200)
I0507 16:18:55.409116  7075 net.cpp:137] Memory required for data: 336248800
I0507 16:18:55.409119  7075 layer_factory.hpp:77] Creating layer pool5
I0507 16:18:55.409127  7075 net.cpp:84] Creating Layer pool5
I0507 16:18:55.409132  7075 net.cpp:406] pool5 <- conv5
I0507 16:18:55.409139  7075 net.cpp:380] pool5 -> pool5
I0507 16:18:55.409188  7075 net.cpp:122] Setting up pool5
I0507 16:18:55.409195  7075 net.cpp:129] Top shape: 50 256 6 6 (460800)
I0507 16:18:55.409199  7075 net.cpp:137] Memory required for data: 338092000
I0507 16:18:55.409202  7075 layer_factory.hpp:77] Creating layer fc6
I0507 16:18:55.409221  7075 net.cpp:84] Creating Layer fc6
I0507 16:18:55.409226  7075 net.cpp:406] fc6 <- pool5
I0507 16:18:55.409235  7075 net.cpp:380] fc6 -> fc6
I0507 16:18:56.609011  7075 net.cpp:122] Setting up fc6
I0507 16:18:56.609047  7075 net.cpp:129] Top shape: 50 4096 (204800)
I0507 16:18:56.609052  7075 net.cpp:137] Memory required for data: 338911200
I0507 16:18:56.609062  7075 layer_factory.hpp:77] Creating layer relu6
I0507 16:18:56.609078  7075 net.cpp:84] Creating Layer relu6
I0507 16:18:56.609084  7075 net.cpp:406] relu6 <- fc6
I0507 16:18:56.609093  7075 net.cpp:367] relu6 -> fc6 (in-place)
I0507 16:18:56.609518  7075 net.cpp:122] Setting up relu6
I0507 16:18:56.609531  7075 net.cpp:129] Top shape: 50 4096 (204800)
I0507 16:18:56.609535  7075 net.cpp:137] Memory required for data: 339730400
I0507 16:18:56.609540  7075 layer_factory.hpp:77] Creating layer drop6
I0507 16:18:56.609556  7075 net.cpp:84] Creating Layer drop6
I0507 16:18:56.609561  7075 net.cpp:406] drop6 <- fc6
I0507 16:18:56.609567  7075 net.cpp:367] drop6 -> fc6 (in-place)
I0507 16:18:56.609609  7075 net.cpp:122] Setting up drop6
I0507 16:18:56.609616  7075 net.cpp:129] Top shape: 50 4096 (204800)
I0507 16:18:56.609621  7075 net.cpp:137] Memory required for data: 340549600
I0507 16:18:56.609623  7075 layer_factory.hpp:77] Creating layer fc7
I0507 16:18:56.609637  7075 net.cpp:84] Creating Layer fc7
I0507 16:18:56.609642  7075 net.cpp:406] fc7 <- fc6
I0507 16:18:56.609648  7075 net.cpp:380] fc7 -> fc7
I0507 16:18:57.142113  7075 net.cpp:122] Setting up fc7
I0507 16:18:57.142148  7075 net.cpp:129] Top shape: 50 4096 (204800)
I0507 16:18:57.142153  7075 net.cpp:137] Memory required for data: 341368800
I0507 16:18:57.142163  7075 layer_factory.hpp:77] Creating layer relu7
I0507 16:18:57.142177  7075 net.cpp:84] Creating Layer relu7
I0507 16:18:57.142184  7075 net.cpp:406] relu7 <- fc7
I0507 16:18:57.142191  7075 net.cpp:367] relu7 -> fc7 (in-place)
I0507 16:18:57.142459  7075 net.cpp:122] Setting up relu7
I0507 16:18:57.142470  7075 net.cpp:129] Top shape: 50 4096 (204800)
I0507 16:18:57.142475  7075 net.cpp:137] Memory required for data: 342188000
I0507 16:18:57.142479  7075 layer_factory.hpp:77] Creating layer drop7
I0507 16:18:57.142491  7075 net.cpp:84] Creating Layer drop7
I0507 16:18:57.142499  7075 net.cpp:406] drop7 <- fc7
I0507 16:18:57.142539  7075 net.cpp:367] drop7 -> fc7 (in-place)
I0507 16:18:57.142573  7075 net.cpp:122] Setting up drop7
I0507 16:18:57.142580  7075 net.cpp:129] Top shape: 50 4096 (204800)
I0507 16:18:57.142585  7075 net.cpp:137] Memory required for data: 343007200
I0507 16:18:57.142587  7075 layer_factory.hpp:77] Creating layer fc8_oxford_102
I0507 16:18:57.142599  7075 net.cpp:84] Creating Layer fc8_oxford_102
I0507 16:18:57.142603  7075 net.cpp:406] fc8_oxford_102 <- fc7
I0507 16:18:57.142611  7075 net.cpp:380] fc8_oxford_102 -> fc8_oxford_102
I0507 16:18:57.156494  7075 net.cpp:122] Setting up fc8_oxford_102
I0507 16:18:57.156512  7075 net.cpp:129] Top shape: 50 102 (5100)
I0507 16:18:57.156515  7075 net.cpp:137] Memory required for data: 343027600
I0507 16:18:57.156523  7075 layer_factory.hpp:77] Creating layer loss
I0507 16:18:57.156535  7075 net.cpp:84] Creating Layer loss
I0507 16:18:57.156541  7075 net.cpp:406] loss <- fc8_oxford_102
I0507 16:18:57.156546  7075 net.cpp:406] loss <- label
I0507 16:18:57.156558  7075 net.cpp:380] loss -> (automatic)
I0507 16:18:57.156572  7075 layer_factory.hpp:77] Creating layer loss
…
I0507 16:18:57.160058  7075 net.cpp:294] The NetState phase (1) differed from the phase (0) specified by a rule in layer data
I0507 16:18:57.160341  7075 net.cpp:51] Initializing net from parameters: 
name: "Oxford102_CaffeNet"
state {
  phase: TEST
}
layer {
  name: "data"
  type: "ImageData"
  top: "data"
  top: "label"
  include {
    phase: TEST
  }
  transform_param {
    mirror: false
    crop_size: 227
    mean_file: "/home/stavsofe@st.technion.ac.il/caffe/data/ilsvrc12/imagenet_mean.binaryproto"
  }
  image_data_param {
    source: "/home/stavsofe@st.technion.ac.il/caffe-oxford102/train.txt"
    batch_size: 50
    new_height: 256
    new_width: 256
  }
}
layer {
  name: "conv1"
  type: "Convolution"
  bottom: "data"
  top: "conv1"
  param {
    lr_mult: 1
    decay_mult: 1
  }
  param {
    lr_mult: 2
    decay_mult: 0
  }
  convolution_param {
    num_output: 96
    kernel_size: 11
    stride: 4
    weight_filler {
      type: "gaussian"
      std: 0.01
    }
    bias_filler {
      type: "constant"
      value: 0
    }
  }
}
layer {
  name: "relu1"
  type: "ReLU"
  bottom: "conv1"
  top: "conv1"
}
layer {
  name: "pool1"
  type: "Pooling"
  bottom: "conv1"
  top: "pool1"
  pooling_param {
    pool: MAX
    kernel_size: 3
    stride: 2
  }
}
layer {
  name: "norm1"
  type: "LRN"
  bottom: "pool1"
  top: "norm1"
  lrn_param {
    local_size: 5
    alpha: 0.0001
    beta: 0.75
  }
}
layer {
  name: "conv2"
  type: "Convolution"
  bottom: "norm1"
  top: "conv2"
  param {
    lr_mult: 1
    decay_mult: 1
  }
  param {
    lr_mult: 2
    decay_mult: 0
  }
  convolution_param {
    num_output: 256
    pad: 2
    kernel_size: 5
    group: 2
    weight_filler {
      type: "gaussian"
      std: 0.01
    }
    bias_filler {
      type: "constant"
      value: 1
    }
  }
}
layer {
  name: "relu2"
  type: "ReLU"
  bottom: "conv2"
  top: "conv2"
}
layer {
  name: "pool2"
  type: "Pooling"
  bottom: "conv2"
  top: "pool2"
  pooling_param {
    pool: MAX
    kernel_size: 3
    stride: 2
  }
}
layer {
  name: "norm2"
  type: "LRN"
  bottom: "pool2"
  top: "norm2"
  lrn_param {
    local_size: 5
    alpha: 0.0001
    beta: 0.75
  }
}
layer {
  name: "conv3"
  type: "Convolution"
  bottom: "norm2"
  top: "conv3"
  param {
    lr_mult: 1
    decay_mult: 1
  }
  param {
    lr_mult: 2
    decay_mult: 0
  }
  convolution_param {
    num_output: 384
    pad: 1
    kernel_size: 3
    weight_filler {
      type: "gaussian"
      std: 0.01
    }
    bias_filler {
      type: "constant"
      value: 0
    }
  }
}
layer {
  name: "relu3"
  type: "ReLU"
  bottom: "conv3"
  top: "conv3"
}
layer {
  name: "conv4"
  type: "Convolution"
  bottom: "conv3"
  top: "conv4"
  param {
    lr_mult: 1
    decay_mult: 1
  }
  param {
    lr_mult: 2
    decay_mult: 0
  }
  convolution_param {
    num_output: 384
    pad: 1
    kernel_size: 3
    group: 2
    weight_filler {
      type: "gaussian"
      std: 0.01
    }
    bias_filler {
      type: "constant"
      value: 1
    }
  }
}
layer {
  name: "relu4"
  type: "ReLU"
  bottom: "conv4"
  top: "conv4"
}
layer {
  name: "conv5"
  type: "Convolution"
  bottom: "conv4"
  top: "conv5"
  param {
    lr_mult: 1
    decay_mult: 1
  }
  param {
    lr_mult: 2
    decay_mult: 0
  }
  convolution_param {
    num_output: 256
    pad: 1
    kernel_size: 3
    group: 2
    weight_filler {
      type: "gaussian"
      std: 0.01
    }
    bias_filler {
      type: "constant"
      value: 1
    }
  }
}
layer {
  name: "relu5"
  type: "ReLU"
  bottom: "conv5"
  top: "conv5"
}
layer {
  name: "pool5"
  type: "Pooling"
  bottom: "conv5"
  top: "pool5"
  pooling_param {
    pool: MAX
    kernel_size: 3
    stride: 2
  }
}
layer {
  name: "fc6"
  type: "InnerProduct"
  bottom: "pool5"
  top: "fc6"
  param {
    lr_mult: 1
    decay_mult: 1
  }
  param {
    lr_mult: 2
    decay_mult: 0
  }
  inner_product_param {
    num_output: 4096
    weight_filler {
      type: "gaussian"
      std: 0.005
    }
    bias_filler {
      type: "constant"
      value: 1
    }
  }
}
layer {
  name: "relu6"
  type: "ReLU"
  bottom: "fc6"
  top: "fc6"
}
layer {
  name: "drop6"
  type: "Dropout"
  bottom: "fc6"
  top: "fc6"
  dropout_param {
    dropout_ratio: 0.5
  }
}
layer {
  name: "fc7"
  type: "InnerProduct"
  bottom: "fc6"
  top: "fc7"
  param {
    lr_mult: 1
    decay_mult: 1
  }
  param {
    lr_mult: 2
    decay_mult: 0
  }
  inner_product_param {
    num_output: 4096
    weight_filler {
      type: "gaussian"
      std: 0.005
    }
    bias_filler {
      type: "constant"
      value: 1
    }
  }
}
layer {
  name: "relu7"
  type: "ReLU"
  bottom: "fc7"
  top: "fc7"
}
layer {
  name: "drop7"
  type: "Dropout"
  bottom: "fc7"
  top: "fc7"
  dropout_param {
    dropout_ratio: 0.5
  }
}
layer {
  name: "fc8_oxford_102"
  type: "InnerProduct"
  bottom: "fc7"
  top: "fc8_oxford_102"
  param {
    lr_mult: 10
    decay_mult: 1
  }
  param {
    lr_mult: 20
    decay_mult: 0
  }
  inner_product_param {
    num_output: 102
    weight_filler {
      type: "gaussian"
      std: 0.01
    }
    bias_filler {
      type: "constant"
      value: 0
    }
  }
}
layer {
  name: "loss"
  type: "SoftmaxWithLoss"
  bottom: "fc8_oxford_102"
  bottom: "label"
}
layer {
  name: "accuracy"
  type: "Accuracy"
  bottom: "fc8_oxford_102"
  bottom: "label"
  top: "accuracy"
  include {
    phase: TEST
  }
}
I0507 16:18:57.160776  7075 layer_factory.hpp:77] Creating layer data
I0507 16:18:57.160797  7075 net.cpp:84] Creating Layer data
I0507 16:18:57.160804  7075 net.cpp:380] data -> data
I0507 16:18:57.160815  7075 net.cpp:380] data -> label
I0507 16:18:57.160823  7075 data_transformer.cpp:25] Loading mean file from: /home/stavsofe@st.technion.ac.il/caffe/data/ilsvrc12/imagenet_mean.binaryproto
I0507 16:18:57.164027  7075 image_data_layer.cpp:38] Opening file /home/stavsofe@st.technion.ac.il/caffe-oxford102/train.txt
I0507 16:18:57.164981  7075 image_data_layer.cpp:63] A total of 1020 images.
I0507 16:18:57.249408  7075 image_data_layer.cpp:90] output data size: 50,3,227,227
I0507 16:18:57.318706  7075 net.cpp:122] Setting up data
I0507 16:18:57.318749  7075 net.cpp:129] Top shape: 50 3 227 227 (7729350)
I0507 16:18:57.318758  7075 net.cpp:129] Top shape: 50 (50)
I0507 16:18:57.318761  7075 net.cpp:137] Memory required for data: 30917600
I0507 16:18:57.318768  7075 layer_factory.hpp:77] Creating layer label_data_1_split
I0507 16:18:57.318789  7075 net.cpp:84] Creating Layer label_data_1_split
I0507 16:18:57.318795  7075 net.cpp:406] label_data_1_split <- label
I0507 16:18:57.318804  7075 net.cpp:380] label_data_1_split -> label_data_1_split_0
I0507 16:18:57.318819  7075 net.cpp:380] label_data_1_split -> label_data_1_split_1
I0507 16:18:57.318897  7075 net.cpp:122] Setting up label_data_1_split
I0507 16:18:57.318905  7075 net.cpp:129] Top shape: 50 (50)
I0507 16:18:57.318910  7075 net.cpp:129] Top shape: 50 (50)
I0507 16:18:57.318914  7075 net.cpp:137] Memory required for data: 30918000
I0507 16:18:57.318918  7075 layer_factory.hpp:77] Creating layer conv1
I0507 16:18:57.318935  7075 net.cpp:84] Creating Layer conv1
I0507 16:18:57.318939  7075 net.cpp:406] conv1 <- data
I0507 16:18:57.318948  7075 net.cpp:380] conv1 -> conv1
I0507 16:18:57.321153  7075 net.cpp:122] Setting up conv1
I0507 16:18:57.321171  7075 net.cpp:129] Top shape: 50 96 55 55 (14520000)
I0507 16:18:57.321177  7075 net.cpp:137] Memory required for data: 88998000
I0507 16:18:57.321190  7075 layer_factory.hpp:77] Creating layer relu1
I0507 16:18:57.321199  7075 net.cpp:84] Creating Layer relu1
I0507 16:18:57.321204  7075 net.cpp:406] relu1 <- conv1
I0507 16:18:57.321211  7075 net.cpp:367] relu1 -> conv1 (in-place)
I0507 16:18:57.321411  7075 net.cpp:122] Setting up relu1
I0507 16:18:57.321422  7075 net.cpp:129] Top shape: 50 96 55 55 (14520000)
I0507 16:18:57.321426  7075 net.cpp:137] Memory required for data: 147078000
I0507 16:18:57.321431  7075 layer_factory.hpp:77] Creating layer pool1
I0507 16:18:57.321441  7075 net.cpp:84] Creating Layer pool1
I0507 16:18:57.321445  7075 net.cpp:406] pool1 <- conv1
I0507 16:18:57.321452  7075 net.cpp:380] pool1 -> pool1
I0507 16:18:57.321502  7075 net.cpp:122] Setting up pool1
I0507 16:18:57.321509  7075 net.cpp:129] Top shape: 50 96 27 27 (3499200)
I0507 16:18:57.321513  7075 net.cpp:137] Memory required for data: 161074800
I0507 16:18:57.321517  7075 layer_factory.hpp:77] Creating layer norm1
I0507 16:18:57.321527  7075 net.cpp:84] Creating Layer norm1
I0507 16:18:57.321530  7075 net.cpp:406] norm1 <- pool1
I0507 16:18:57.321537  7075 net.cpp:380] norm1 -> norm1
I0507 16:18:57.321842  7075 net.cpp:122] Setting up norm1
I0507 16:18:57.321882  7075 net.cpp:129] Top shape: 50 96 27 27 (3499200)
I0507 16:18:57.321887  7075 net.cpp:137] Memory required for data: 175071600
I0507 16:18:57.321892  7075 layer_factory.hpp:77] Creating layer conv2
I0507 16:18:57.321903  7075 net.cpp:84] Creating Layer conv2
I0507 16:18:57.321908  7075 net.cpp:406] conv2 <- norm1
I0507 16:18:57.321918  7075 net.cpp:380] conv2 -> conv2
I0507 16:18:57.333364  7075 net.cpp:122] Setting up conv2
I0507 16:18:57.333384  7075 net.cpp:129] Top shape: 50 256 27 27 (9331200)
I0507 16:18:57.333389  7075 net.cpp:137] Memory required for data: 212396400
I0507 16:18:57.333400  7075 layer_factory.hpp:77] Creating layer relu2
I0507 16:18:57.333410  7075 net.cpp:84] Creating Layer relu2
I0507 16:18:57.333415  7075 net.cpp:406] relu2 <- conv2
I0507 16:18:57.333421  7075 net.cpp:367] relu2 -> conv2 (in-place)
I0507 16:18:57.333695  7075 net.cpp:122] Setting up relu2
I0507 16:18:57.333709  7075 net.cpp:129] Top shape: 50 256 27 27 (9331200)
I0507 16:18:57.333712  7075 net.cpp:137] Memory required for data: 249721200
I0507 16:18:57.333717  7075 layer_factory.hpp:77] Creating layer pool2
I0507 16:18:57.333727  7075 net.cpp:84] Creating Layer pool2
I0507 16:18:57.333731  7075 net.cpp:406] pool2 <- conv2
I0507 16:18:57.333739  7075 net.cpp:380] pool2 -> pool2
I0507 16:18:57.333792  7075 net.cpp:122] Setting up pool2
I0507 16:18:57.333801  7075 net.cpp:129] Top shape: 50 256 13 13 (2163200)
I0507 16:18:57.333804  7075 net.cpp:137] Memory required for data: 258374000
I0507 16:18:57.333808  7075 layer_factory.hpp:77] Creating layer norm2
I0507 16:18:57.333816  7075 net.cpp:84] Creating Layer norm2
I0507 16:18:57.333820  7075 net.cpp:406] norm2 <- pool2
I0507 16:18:57.333827  7075 net.cpp:380] norm2 -> norm2
I0507 16:18:57.334038  7075 net.cpp:122] Setting up norm2
I0507 16:18:57.334048  7075 net.cpp:129] Top shape: 50 256 13 13 (2163200)
I0507 16:18:57.334053  7075 net.cpp:137] Memory required for data: 267026800
I0507 16:18:57.334055  7075 layer_factory.hpp:77] Creating layer conv3
I0507 16:18:57.334067  7075 net.cpp:84] Creating Layer conv3
I0507 16:18:57.334071  7075 net.cpp:406] conv3 <- norm2
I0507 16:18:57.334079  7075 net.cpp:380] conv3 -> conv3
I0507 16:18:57.363070  7075 net.cpp:122] Setting up conv3
I0507 16:18:57.363090  7075 net.cpp:129] Top shape: 50 384 13 13 (3244800)
I0507 16:18:57.363095  7075 net.cpp:137] Memory required for data: 280006000
I0507 16:18:57.363107  7075 layer_factory.hpp:77] Creating layer relu3
I0507 16:18:57.363116  7075 net.cpp:84] Creating Layer relu3
I0507 16:18:57.363121  7075 net.cpp:406] relu3 <- conv3
I0507 16:18:57.363128  7075 net.cpp:367] relu3 -> conv3 (in-place)
I0507 16:18:57.363445  7075 net.cpp:122] Setting up relu3
I0507 16:18:57.363458  7075 net.cpp:129] Top shape: 50 384 13 13 (3244800)
I0507 16:18:57.363462  7075 net.cpp:137] Memory required for data: 292985200
I0507 16:18:57.363467  7075 layer_factory.hpp:77] Creating layer conv4
I0507 16:18:57.363481  7075 net.cpp:84] Creating Layer conv4
I0507 16:18:57.363486  7075 net.cpp:406] conv4 <- conv3
I0507 16:18:57.363494  7075 net.cpp:380] conv4 -> conv4
I0507 16:18:57.386171  7075 net.cpp:122] Setting up conv4
I0507 16:18:57.386190  7075 net.cpp:129] Top shape: 50 384 13 13 (3244800)
I0507 16:18:57.386194  7075 net.cpp:137] Memory required for data: 305964400
I0507 16:18:57.386204  7075 layer_factory.hpp:77] Creating layer relu4
I0507 16:18:57.386211  7075 net.cpp:84] Creating Layer relu4
I0507 16:18:57.386217  7075 net.cpp:406] relu4 <- conv4
I0507 16:18:57.386224  7075 net.cpp:367] relu4 -> conv4 (in-place)
I0507 16:18:57.386521  7075 net.cpp:122] Setting up relu4
I0507 16:18:57.386534  7075 net.cpp:129] Top shape: 50 384 13 13 (3244800)
I0507 16:18:57.386539  7075 net.cpp:137] Memory required for data: 318943600
I0507 16:18:57.386543  7075 layer_factory.hpp:77] Creating layer conv5
I0507 16:18:57.386556  7075 net.cpp:84] Creating Layer conv5
I0507 16:18:57.386561  7075 net.cpp:406] conv5 <- conv4
I0507 16:18:57.386574  7075 net.cpp:380] conv5 -> conv5
I0507 16:18:57.402284  7075 net.cpp:122] Setting up conv5
I0507 16:18:57.402302  7075 net.cpp:129] Top shape: 50 256 13 13 (2163200)
I0507 16:18:57.402307  7075 net.cpp:137] Memory required for data: 327596400
I0507 16:18:57.402319  7075 layer_factory.hpp:77] Creating layer relu5
I0507 16:18:57.402328  7075 net.cpp:84] Creating Layer relu5
I0507 16:18:57.402333  7075 net.cpp:406] relu5 <- conv5
I0507 16:18:57.402339  7075 net.cpp:367] relu5 -> conv5 (in-place)
I0507 16:18:57.402602  7075 net.cpp:122] Setting up relu5
I0507 16:18:57.402616  7075 net.cpp:129] Top shape: 50 256 13 13 (2163200)
I0507 16:18:57.402619  7075 net.cpp:137] Memory required for data: 336249200
I0507 16:18:57.402624  7075 layer_factory.hpp:77] Creating layer pool5
I0507 16:18:57.402636  7075 net.cpp:84] Creating Layer pool5
I0507 16:18:57.402640  7075 net.cpp:406] pool5 <- conv5
I0507 16:18:57.402647  7075 net.cpp:380] pool5 -> pool5
I0507 16:18:57.402699  7075 net.cpp:122] Setting up pool5
I0507 16:18:57.402707  7075 net.cpp:129] Top shape: 50 256 6 6 (460800)
I0507 16:18:57.402710  7075 net.cpp:137] Memory required for data: 338092400
I0507 16:18:57.402714  7075 layer_factory.hpp:77] Creating layer fc6
I0507 16:18:57.402725  7075 net.cpp:84] Creating Layer fc6
I0507 16:18:57.402729  7075 net.cpp:406] fc6 <- pool5
I0507 16:18:57.402736  7075 net.cpp:380] fc6 -> fc6
I0507 16:18:58.595069  7075 net.cpp:122] Setting up fc6
I0507 16:18:58.595100  7075 net.cpp:129] Top shape: 50 4096 (204800)
I0507 16:18:58.595105  7075 net.cpp:137] Memory required for data: 338911600
I0507 16:18:58.595115  7075 layer_factory.hpp:77] Creating layer relu6
I0507 16:18:58.595129  7075 net.cpp:84] Creating Layer relu6
I0507 16:18:58.595135  7075 net.cpp:406] relu6 <- fc6
I0507 16:18:58.595144  7075 net.cpp:367] relu6 -> fc6 (in-place)
I0507 16:18:58.595584  7075 net.cpp:122] Setting up relu6
I0507 16:18:58.595599  7075 net.cpp:129] Top shape: 50 4096 (204800)
I0507 16:18:58.595604  7075 net.cpp:137] Memory required for data: 339730800
I0507 16:18:58.595609  7075 layer_factory.hpp:77] Creating layer drop6
I0507 16:18:58.595618  7075 net.cpp:84] Creating Layer drop6
I0507 16:18:58.595623  7075 net.cpp:406] drop6 <- fc6
I0507 16:18:58.595630  7075 net.cpp:367] drop6 -> fc6 (in-place)
I0507 16:18:58.595669  7075 net.cpp:122] Setting up drop6
I0507 16:18:58.595676  7075 net.cpp:129] Top shape: 50 4096 (204800)
I0507 16:18:58.595680  7075 net.cpp:137] Memory required for data: 340550000
I0507 16:18:58.595684  7075 layer_factory.hpp:77] Creating layer fc7
I0507 16:18:58.595695  7075 net.cpp:84] Creating Layer fc7
I0507 16:18:58.595698  7075 net.cpp:406] fc7 <- fc6
I0507 16:18:58.595706  7075 net.cpp:380] fc7 -> fc7
I0507 16:18:59.128093  7075 net.cpp:122] Setting up fc7
I0507 16:18:59.128126  7075 net.cpp:129] Top shape: 50 4096 (204800)
I0507 16:18:59.128131  7075 net.cpp:137] Memory required for data: 341369200
I0507 16:18:59.128142  7075 layer_factory.hpp:77] Creating layer relu7
I0507 16:18:59.128156  7075 net.cpp:84] Creating Layer relu7
I0507 16:18:59.128162  7075 net.cpp:406] relu7 <- fc7
I0507 16:18:59.128172  7075 net.cpp:367] relu7 -> fc7 (in-place)
I0507 16:18:59.128440  7075 net.cpp:122] Setting up relu7
I0507 16:18:59.128453  7075 net.cpp:129] Top shape: 50 4096 (204800)
I0507 16:18:59.128458  7075 net.cpp:137] Memory required for data: 342188400
I0507 16:18:59.128461  7075 layer_factory.hpp:77] Creating layer drop7
I0507 16:18:59.128470  7075 net.cpp:84] Creating Layer drop7
I0507 16:18:59.128475  7075 net.cpp:406] drop7 <- fc7
I0507 16:18:59.128482  7075 net.cpp:367] drop7 -> fc7 (in-place)
I0507 16:18:59.128520  7075 net.cpp:122] Setting up drop7
I0507 16:18:59.128526  7075 net.cpp:129] Top shape: 50 4096 (204800)
I0507 16:18:59.128530  7075 net.cpp:137] Memory required for data: 343007600
I0507 16:18:59.128535  7075 layer_factory.hpp:77] Creating layer fc8_oxford_102
I0507 16:18:59.128545  7075 net.cpp:84] Creating Layer fc8_oxford_102
I0507 16:18:59.128549  7075 net.cpp:406] fc8_oxford_102 <- fc7
I0507 16:18:59.128562  7075 net.cpp:380] fc8_oxford_102 -> fc8_oxford_102
I0507 16:18:59.142202  7075 net.cpp:122] Setting up fc8_oxford_102
I0507 16:18:59.142220  7075 net.cpp:129] Top shape: 50 102 (5100)
I0507 16:18:59.142225  7075 net.cpp:137] Memory required for data: 343028000
I0507 16:18:59.142233  7075 layer_factory.hpp:77] Creating layer fc8_oxford_102_fc8_oxford_102_0_split
I0507 16:18:59.142251  7075 net.cpp:84] Creating Layer fc8_oxford_102_fc8_oxford_102_0_split
I0507 16:18:59.142256  7075 net.cpp:406] fc8_oxford_102_fc8_oxford_102_0_split <- fc8_oxford_102
I0507 16:18:59.142264  7075 net.cpp:380] fc8_oxford_102_fc8_oxford_102_0_split -> fc8_oxford_102_fc8_oxford_102_0_split_0
I0507 16:18:59.142273  7075 net.cpp:380] fc8_oxford_102_fc8_oxford_102_0_split -> fc8_oxford_102_fc8_oxford_102_0_split_1
I0507 16:18:59.142320  7075 net.cpp:122] Setting up fc8_oxford_102_fc8_oxford_102_0_split
I0507 16:18:59.142328  7075 net.cpp:129] Top shape: 50 102 (5100)
I0507 16:18:59.142333  7075 net.cpp:129] Top shape: 50 102 (5100)
I0507 16:18:59.142338  7075 net.cpp:137] Memory required for data: 343068800
I0507 16:18:59.142341  7075 layer_factory.hpp:77] Creating layer loss
I0507 16:18:59.142349  7075 net.cpp:84] Creating Layer loss
I0507 16:18:59.142352  7075 net.cpp:406] loss <- fc8_oxford_102_fc8_oxford_102_0_split_0
I0507 16:18:59.142357  7075 net.cpp:406] loss <- label_data_1_split_0
I0507 16:18:59.142364  7075 net.cpp:380] loss -> (automatic)
…
