…
I0517 12:19:06.776317 15819 net.cpp:51] Initializing net from parameters: 
name: "Oxford102_VGG_CNN_S"
state {
  phase: TRAIN
  level: 0
  stage: ""
}
layer {
  name: "data"
  type: "ImageData"
  top: "data"
  top: "label"
  include {
    phase: TRAIN
  }
  transform_param {
    mirror: true
    crop_size: 224
    mean_file: "/home/stavsofe@st.technion.ac.il/caffe/data/ilsvrc12/imagenet_mean.binaryproto"
  }
  image_data_param {
    source: "/home/stavsofe@st.technion.ac.il/caffe-oxford102/test.txt"
    batch_size: 50
    new_height: 256
    new_width: 256
  }
}
layer {
  name: "conv1"
  type: "Convolution"
  bottom: "data"
  top: "conv1"
  param {
    lr_mult: 1
    decay_mult: 1
  }
  param {
    lr_mult: 2
    decay_mult: 0
  }
  convolution_param {
    num_output: 96
    kernel_size: 7
    stride: 2
    weight_filler {
      type: "gaussian"
      std: 0.01
    }
    bias_filler {
      type: "constant"
      value: 0
    }
  }
}
layer {
  name: "relu1"
  type: "ReLU"
  bottom: "conv1"
  top: "conv1"
}
layer {
  name: "norm1"
  type: "LRN"
  bottom: "conv1"
  top: "norm1"
  lrn_param {
    local_size: 5
    alpha: 0.0005
    beta: 0.75
    k: 2
  }
}
layer {
  name: "pool1"
  type: "Pooling"
  bottom: "norm1"
  top: "pool1"
  pooling_param {
    pool: MAX
    kernel_size: 3
    stride: 3
  }
}
layer {
  name: "conv2"
  type: "Convolution"
  bottom: "pool1"
  top: "conv2"
  param {
    lr_mult: 1
    decay_mult: 1
  }
  param {
    lr_mult: 2
    decay_mult: 0
  }
  convolution_param {
    num_output: 256
    kernel_size: 5
    weight_filler {
      type: "gaussian"
      std: 0.01
    }
    bias_filler {
      type: "constant"
      value: 1
    }
  }
}
layer {
  name: "relu2"
  type: "ReLU"
  bottom: "conv2"
  top: "conv2"
}
layer {
  name: "pool2"
  type: "Pooling"
  bottom: "conv2"
  top: "pool2"
  pooling_param {
    pool: MAX
    kernel_size: 2
    stride: 2
  }
}
layer {
  name: "conv3"
  type: "Convolution"
  bottom: "pool2"
  top: "conv3"
  param {
    lr_mult: 1
    decay_mult: 1
  }
  param {
    lr_mult: 2
    decay_mult: 0
  }
  convolution_param {
    num_output: 512
    pad: 1
    kernel_size: 3
    weight_filler {
      type: "gaussian"
      std: 0.01
    }
    bias_filler {
      type: "constant"
      value: 1
    }
  }
}
layer {
  name: "relu3"
  type: "ReLU"
  bottom: "conv3"
  top: "conv3"
}
layer {
  name: "conv4"
  type: "Convolution"
  bottom: "conv3"
  top: "conv4"
  param {
    lr_mult: 1
    decay_mult: 1
  }
  param {
    lr_mult: 2
    decay_mult: 0
  }
  convolution_param {
    num_output: 512
    pad: 1
    kernel_size: 3
    weight_filler {
      type: "gaussian"
      std: 0.01
    }
    bias_filler {
      type: "constant"
      value: 1
    }
  }
}
layer {
  name: "relu4"
  type: "ReLU"
  bottom: "conv4"
  top: "conv4"
}
layer {
  name: "norm2"
  type: "LRN"
  bottom: "conv4"
  top: "norm2"
  lrn_param {
    local_size: 5
    alpha: 0.0005
    beta: 0.75
    k: 2
  }
}
layer {
  name: "conv5"
  type: "Convolution"
  bottom: "norm2"
  top: "conv5"
  param {
    lr_mult: 1
    decay_mult: 1
  }
  param {
    lr_mult: 2
    decay_mult: 0
  }
  convolution_param {
    num_output: 512
    pad: 1
    kernel_size: 3
    weight_filler {
      type: "gaussian"
      std: 0.005
    }
    bias_filler {
      type: "constant"
      value: 1
    }
  }
}
layer {
  name: "relu5"
  type: "ReLU"
  bottom: "conv5"
  top: "conv5"
}
layer {
  name: "pool5"
  type: "Pooling"
  bottom: "conv5"
  top: "pool5"
  pooling_param {
    pool: MAX
    kernel_size: 3
    stride: 3
  }
}
layer {
  name: "fc6"
  type: "InnerProduct"
  bottom: "pool5"
  top: "fc6"
  inner_product_param {
    num_output: 4096
  }
}
layer {
  name: "relu6"
  type: "ReLU"
  bottom: "fc6"
  top: "fc6"
}
layer {
  name: "drop6"
  type: "Dropout"
  bottom: "fc6"
  top: "fc6"
  dropout_param {
    dropout_ratio: 0.5
  }
}
layer {
  name: "fc7"
  type: "InnerProduct"
  bottom: "fc6"
  top: "fc7"
  inner_product_param {
    num_output: 4096
  }
}
layer {
  name: "relu7"
  type: "ReLU"
  bottom: "fc7"
  top: "fc7"
}
layer {
  name: "drop7"
  type: "Dropout"
  bottom: "fc7"
  top: "fc7"
  dropout_param {
    dropout_ratio: 0.5
  }
}
layer {
  name: "fc8_oxford102"
  type: "InnerProduct"
  bottom: "fc7"
  top: "fc8_oxford102"
  param {
    lr_mult: 10
    decay_mult: 1
  }
  param {
    lr_mult: 20
    decay_mult: 0
  }
  inner_product_param {
    num_output: 102
    weight_filler {
      type: "gaussian"
      std: 0.01
    }
    bias_filler {
      type: "constant"
      value: 0
    }
  }
}
layer {
  name: "loss"
  type: "SoftmaxWithLoss"
  bottom: "fc8_oxford102"
  bottom: "label"
}
I0517 12:19:06.776475 15819 layer_factory.hpp:77] Creating layer data
I0517 12:19:06.776513 15819 net.cpp:84] Creating Layer data
I0517 12:19:06.776525 15819 net.cpp:380] data -> data
I0517 12:19:06.776617 15819 net.cpp:380] data -> label
I0517 12:19:06.776644 15819 data_transformer.cpp:25] Loading mean file from: /home/stavsofe@st.technion.ac.il/caffe/data/ilsvrc12/imagenet_mean.binaryproto
I0517 12:19:06.781013 15819 image_data_layer.cpp:38] Opening file /home/stavsofe@st.technion.ac.il/caffe-oxford102/test.txt
I0517 12:19:06.783936 15819 image_data_layer.cpp:63] A total of 6149 images.
I0517 12:19:06.789456 15819 image_data_layer.cpp:90] output data size: 50,3,224,224
I0517 12:19:06.879956 15819 net.cpp:122] Setting up data
I0517 12:19:06.880007 15819 net.cpp:129] Top shape: 50 3 224 224 (7526400)
I0517 12:19:06.880014 15819 net.cpp:129] Top shape: 50 (50)
I0517 12:19:06.880018 15819 net.cpp:137] Memory required for data: 30105800
I0517 12:19:06.880028 15819 layer_factory.hpp:77] Creating layer conv1
I0517 12:19:06.880055 15819 net.cpp:84] Creating Layer conv1
I0517 12:19:06.880062 15819 net.cpp:406] conv1 <- data
I0517 12:19:06.880080 15819 net.cpp:380] conv1 -> conv1
I0517 12:19:07.495996 15819 net.cpp:122] Setting up conv1
I0517 12:19:07.496029 15819 net.cpp:129] Top shape: 50 96 109 109 (57028800)
I0517 12:19:07.496034 15819 net.cpp:137] Memory required for data: 258221000
I0517 12:19:07.496059 15819 layer_factory.hpp:77] Creating layer relu1
I0517 12:19:07.496078 15819 net.cpp:84] Creating Layer relu1
I0517 12:19:07.496083 15819 net.cpp:406] relu1 <- conv1
I0517 12:19:07.496091 15819 net.cpp:367] relu1 -> conv1 (in-place)
I0517 12:19:07.502059 15819 net.cpp:122] Setting up relu1
I0517 12:19:07.502074 15819 net.cpp:129] Top shape: 50 96 109 109 (57028800)
I0517 12:19:07.502079 15819 net.cpp:137] Memory required for data: 486336200
I0517 12:19:07.502084 15819 layer_factory.hpp:77] Creating layer norm1
I0517 12:19:07.502096 15819 net.cpp:84] Creating Layer norm1
I0517 12:19:07.502100 15819 net.cpp:406] norm1 <- conv1
I0517 12:19:07.502109 15819 net.cpp:380] norm1 -> norm1
I0517 12:19:07.506803 15819 net.cpp:122] Setting up norm1
I0517 12:19:07.506817 15819 net.cpp:129] Top shape: 50 96 109 109 (57028800)
I0517 12:19:07.506822 15819 net.cpp:137] Memory required for data: 714451400
I0517 12:19:07.506827 15819 layer_factory.hpp:77] Creating layer pool1
I0517 12:19:07.506839 15819 net.cpp:84] Creating Layer pool1
I0517 12:19:07.506850 15819 net.cpp:406] pool1 <- norm1
I0517 12:19:07.506883 15819 net.cpp:380] pool1 -> pool1
I0517 12:19:07.506940 15819 net.cpp:122] Setting up pool1
I0517 12:19:07.506948 15819 net.cpp:129] Top shape: 50 96 37 37 (6571200)
I0517 12:19:07.506953 15819 net.cpp:137] Memory required for data: 740736200
I0517 12:19:07.506955 15819 layer_factory.hpp:77] Creating layer conv2
I0517 12:19:07.506969 15819 net.cpp:84] Creating Layer conv2
I0517 12:19:07.506973 15819 net.cpp:406] conv2 <- pool1
I0517 12:19:07.506980 15819 net.cpp:380] conv2 -> conv2
I0517 12:19:07.534175 15819 net.cpp:122] Setting up conv2
I0517 12:19:07.534198 15819 net.cpp:129] Top shape: 50 256 33 33 (13939200)
I0517 12:19:07.534202 15819 net.cpp:137] Memory required for data: 796493000
I0517 12:19:07.534217 15819 layer_factory.hpp:77] Creating layer relu2
I0517 12:19:07.534226 15819 net.cpp:84] Creating Layer relu2
I0517 12:19:07.534232 15819 net.cpp:406] relu2 <- conv2
I0517 12:19:07.534240 15819 net.cpp:367] relu2 -> conv2 (in-place)
I0517 12:19:07.537232 15819 net.cpp:122] Setting up relu2
I0517 12:19:07.537247 15819 net.cpp:129] Top shape: 50 256 33 33 (13939200)
I0517 12:19:07.537251 15819 net.cpp:137] Memory required for data: 852249800
I0517 12:19:07.537256 15819 layer_factory.hpp:77] Creating layer pool2
I0517 12:19:07.537266 15819 net.cpp:84] Creating Layer pool2
I0517 12:19:07.537269 15819 net.cpp:406] pool2 <- conv2
I0517 12:19:07.537277 15819 net.cpp:380] pool2 -> pool2
I0517 12:19:07.537328 15819 net.cpp:122] Setting up pool2
I0517 12:19:07.537334 15819 net.cpp:129] Top shape: 50 256 17 17 (3699200)
I0517 12:19:07.537338 15819 net.cpp:137] Memory required for data: 867046600
I0517 12:19:07.537343 15819 layer_factory.hpp:77] Creating layer conv3
I0517 12:19:07.537358 15819 net.cpp:84] Creating Layer conv3
I0517 12:19:07.537361 15819 net.cpp:406] conv3 <- pool2
I0517 12:19:07.537369 15819 net.cpp:380] conv3 -> conv3
I0517 12:19:07.584884 15819 net.cpp:122] Setting up conv3
I0517 12:19:07.584925 15819 net.cpp:129] Top shape: 50 512 17 17 (7398400)
I0517 12:19:07.584934 15819 net.cpp:137] Memory required for data: 896640200
I0517 12:19:07.584960 15819 layer_factory.hpp:77] Creating layer relu3
I0517 12:19:07.584980 15819 net.cpp:84] Creating Layer relu3
I0517 12:19:07.584990 15819 net.cpp:406] relu3 <- conv3
I0517 12:19:07.585003 15819 net.cpp:367] relu3 -> conv3 (in-place)
I0517 12:19:07.589365 15819 net.cpp:122] Setting up relu3
I0517 12:19:07.589386 15819 net.cpp:129] Top shape: 50 512 17 17 (7398400)
I0517 12:19:07.589395 15819 net.cpp:137] Memory required for data: 926233800
I0517 12:19:07.589402 15819 layer_factory.hpp:77] Creating layer conv4
I0517 12:19:07.589428 15819 net.cpp:84] Creating Layer conv4
I0517 12:19:07.589437 15819 net.cpp:406] conv4 <- conv3
I0517 12:19:07.589450 15819 net.cpp:380] conv4 -> conv4
I0517 12:19:07.710472 15819 net.cpp:122] Setting up conv4
I0517 12:19:07.710513 15819 net.cpp:129] Top shape: 50 512 17 17 (7398400)
I0517 12:19:07.710520 15819 net.cpp:137] Memory required for data: 955827400
I0517 12:19:07.710535 15819 layer_factory.hpp:77] Creating layer relu4
I0517 12:19:07.710568 15819 net.cpp:84] Creating Layer relu4
I0517 12:19:07.710577 15819 net.cpp:406] relu4 <- conv4
I0517 12:19:07.710590 15819 net.cpp:367] relu4 -> conv4 (in-place)
I0517 12:19:07.715080 15819 net.cpp:122] Setting up relu4
I0517 12:19:07.715101 15819 net.cpp:129] Top shape: 50 512 17 17 (7398400)
I0517 12:19:07.715106 15819 net.cpp:137] Memory required for data: 985421000
I0517 12:19:07.715116 15819 layer_factory.hpp:77] Creating layer norm2
I0517 12:19:07.715131 15819 net.cpp:84] Creating Layer norm2
I0517 12:19:07.715138 15819 net.cpp:406] norm2 <- conv4
I0517 12:19:07.715150 15819 net.cpp:380] norm2 -> norm2
I0517 12:19:07.719697 15819 net.cpp:122] Setting up norm2
I0517 12:19:07.719717 15819 net.cpp:129] Top shape: 50 512 17 17 (7398400)
I0517 12:19:07.719723 15819 net.cpp:137] Memory required for data: 1015014600
I0517 12:19:07.719730 15819 layer_factory.hpp:77] Creating layer conv5
I0517 12:19:07.719755 15819 net.cpp:84] Creating Layer conv5
I0517 12:19:07.719801 15819 net.cpp:406] conv5 <- norm2
I0517 12:19:07.719815 15819 net.cpp:380] conv5 -> conv5
I0517 12:19:07.831203 15819 net.cpp:122] Setting up conv5
I0517 12:19:07.831243 15819 net.cpp:129] Top shape: 50 512 17 17 (7398400)
I0517 12:19:07.831250 15819 net.cpp:137] Memory required for data: 1044608200
I0517 12:19:07.831277 15819 layer_factory.hpp:77] Creating layer relu5
I0517 12:19:07.831295 15819 net.cpp:84] Creating Layer relu5
I0517 12:19:07.831302 15819 net.cpp:406] relu5 <- conv5
I0517 12:19:07.831313 15819 net.cpp:367] relu5 -> conv5 (in-place)
I0517 12:19:07.835476 15819 net.cpp:122] Setting up relu5
I0517 12:19:07.835499 15819 net.cpp:129] Top shape: 50 512 17 17 (7398400)
I0517 12:19:07.835505 15819 net.cpp:137] Memory required for data: 1074201800
I0517 12:19:07.835512 15819 layer_factory.hpp:77] Creating layer pool5
I0517 12:19:07.835525 15819 net.cpp:84] Creating Layer pool5
I0517 12:19:07.835532 15819 net.cpp:406] pool5 <- conv5
I0517 12:19:07.835551 15819 net.cpp:380] pool5 -> pool5
I0517 12:19:07.835629 15819 net.cpp:122] Setting up pool5
I0517 12:19:07.835642 15819 net.cpp:129] Top shape: 50 512 6 6 (921600)
I0517 12:19:07.835647 15819 net.cpp:137] Memory required for data: 1077888200
I0517 12:19:07.835654 15819 layer_factory.hpp:77] Creating layer fc6
I0517 12:19:07.835677 15819 net.cpp:84] Creating Layer fc6
I0517 12:19:07.835685 15819 net.cpp:406] fc6 <- pool5
I0517 12:19:07.835693 15819 net.cpp:380] fc6 -> fc6
I0517 12:19:08.032384 15819 net.cpp:122] Setting up fc6
I0517 12:19:08.032428 15819 net.cpp:129] Top shape: 50 4096 (204800)
I0517 12:19:08.032433 15819 net.cpp:137] Memory required for data: 1078707400
I0517 12:19:08.032444 15819 layer_factory.hpp:77] Creating layer relu6
I0517 12:19:08.032457 15819 net.cpp:84] Creating Layer relu6
I0517 12:19:08.032462 15819 net.cpp:406] relu6 <- fc6
I0517 12:19:08.032471 15819 net.cpp:367] relu6 -> fc6 (in-place)
I0517 12:19:08.032742 15819 net.cpp:122] Setting up relu6
I0517 12:19:08.032754 15819 net.cpp:129] Top shape: 50 4096 (204800)
I0517 12:19:08.032758 15819 net.cpp:137] Memory required for data: 1079526600
I0517 12:19:08.032763 15819 layer_factory.hpp:77] Creating layer drop6
I0517 12:19:08.032778 15819 net.cpp:84] Creating Layer drop6
I0517 12:19:08.032783 15819 net.cpp:406] drop6 <- fc6
I0517 12:19:08.032790 15819 net.cpp:367] drop6 -> fc6 (in-place)
I0517 12:19:08.032835 15819 net.cpp:122] Setting up drop6
I0517 12:19:08.032842 15819 net.cpp:129] Top shape: 50 4096 (204800)
I0517 12:19:08.032846 15819 net.cpp:137] Memory required for data: 1080345800
I0517 12:19:08.032851 15819 layer_factory.hpp:77] Creating layer fc7
I0517 12:19:08.032863 15819 net.cpp:84] Creating Layer fc7
I0517 12:19:08.032867 15819 net.cpp:406] fc7 <- fc6
I0517 12:19:08.032873 15819 net.cpp:380] fc7 -> fc7
I0517 12:19:08.071252 15819 net.cpp:122] Setting up fc7
I0517 12:19:08.071285 15819 net.cpp:129] Top shape: 50 4096 (204800)
I0517 12:19:08.071290 15819 net.cpp:137] Memory required for data: 1081165000
I0517 12:19:08.071300 15819 layer_factory.hpp:77] Creating layer relu7
I0517 12:19:08.071311 15819 net.cpp:84] Creating Layer relu7
I0517 12:19:08.071317 15819 net.cpp:406] relu7 <- fc7
I0517 12:19:08.071324 15819 net.cpp:367] relu7 -> fc7 (in-place)
I0517 12:19:08.071758 15819 net.cpp:122] Setting up relu7
I0517 12:19:08.071775 15819 net.cpp:129] Top shape: 50 4096 (204800)
I0517 12:19:08.071780 15819 net.cpp:137] Memory required for data: 1081984200
I0517 12:19:08.071784 15819 layer_factory.hpp:77] Creating layer drop7
I0517 12:19:08.071794 15819 net.cpp:84] Creating Layer drop7
I0517 12:19:08.071797 15819 net.cpp:406] drop7 <- fc7
I0517 12:19:08.071804 15819 net.cpp:367] drop7 -> fc7 (in-place)
I0517 12:19:08.071841 15819 net.cpp:122] Setting up drop7
I0517 12:19:08.071847 15819 net.cpp:129] Top shape: 50 4096 (204800)
I0517 12:19:08.071851 15819 net.cpp:137] Memory required for data: 1082803400
I0517 12:19:08.071854 15819 layer_factory.hpp:77] Creating layer fc8_oxford102
I0517 12:19:08.071866 15819 net.cpp:84] Creating Layer fc8_oxford102
I0517 12:19:08.071874 15819 net.cpp:406] fc8_oxford102 <- fc7
I0517 12:19:08.071907 15819 net.cpp:380] fc8_oxford102 -> fc8_oxford102
I0517 12:19:08.085883 15819 net.cpp:122] Setting up fc8_oxford102
I0517 12:19:08.085916 15819 net.cpp:129] Top shape: 50 102 (5100)
I0517 12:19:08.085921 15819 net.cpp:137] Memory required for data: 1082823800
I0517 12:19:08.085932 15819 layer_factory.hpp:77] Creating layer loss
I0517 12:19:08.085949 15819 net.cpp:84] Creating Layer loss
I0517 12:19:08.085957 15819 net.cpp:406] loss <- fc8_oxford102
I0517 12:19:08.085963 15819 net.cpp:406] loss <- label
I0517 12:19:08.085975 15819 net.cpp:380] loss -> (automatic)
I0517 12:19:08.085989 15819 layer_factory.hpp:77] Creating layer loss
…
I0517 12:19:08.088312 15819 net.cpp:294] The NetState phase (1) differed from the phase (0) specified by a rule in layer data
I0517 12:19:08.088601 15819 net.cpp:51] Initializing net from parameters: 
name: "Oxford102_VGG_CNN_S"
state {
  phase: TEST
}
layer {
  name: "data"
  type: "ImageData"
  top: "data"
  top: "label"
  include {
    phase: TEST
  }
  transform_param {
    mirror: false
    crop_size: 224
    mean_file: "/home/stavsofe@st.technion.ac.il/caffe/data/ilsvrc12/imagenet_mean.binaryproto"
  }
  image_data_param {
    source: "/home/stavsofe@st.technion.ac.il/caffe-oxford102/train.txt"
    batch_size: 50
    new_height: 256
    new_width: 256
  }
}
layer {
  name: "conv1"
  type: "Convolution"
  bottom: "data"
  top: "conv1"
  param {
    lr_mult: 1
    decay_mult: 1
  }
  param {
    lr_mult: 2
    decay_mult: 0
  }
  convolution_param {
    num_output: 96
    kernel_size: 7
    stride: 2
    weight_filler {
      type: "gaussian"
      std: 0.01
    }
    bias_filler {
      type: "constant"
      value: 0
    }
  }
}
layer {
  name: "relu1"
  type: "ReLU"
  bottom: "conv1"
  top: "conv1"
}
layer {
  name: "norm1"
  type: "LRN"
  bottom: "conv1"
  top: "norm1"
  lrn_param {
    local_size: 5
    alpha: 0.0005
    beta: 0.75
    k: 2
  }
}
layer {
  name: "pool1"
  type: "Pooling"
  bottom: "norm1"
  top: "pool1"
  pooling_param {
    pool: MAX
    kernel_size: 3
    stride: 3
  }
}
layer {
  name: "conv2"
  type: "Convolution"
  bottom: "pool1"
  top: "conv2"
  param {
    lr_mult: 1
    decay_mult: 1
  }
  param {
    lr_mult: 2
    decay_mult: 0
  }
  convolution_param {
    num_output: 256
    kernel_size: 5
    weight_filler {
      type: "gaussian"
      std: 0.01
    }
    bias_filler {
      type: "constant"
      value: 1
    }
  }
}
layer {
  name: "relu2"
  type: "ReLU"
  bottom: "conv2"
  top: "conv2"
}
layer {
  name: "pool2"
  type: "Pooling"
  bottom: "conv2"
  top: "pool2"
  pooling_param {
    pool: MAX
    kernel_size: 2
    stride: 2
  }
}
layer {
  name: "conv3"
  type: "Convolution"
  bottom: "pool2"
  top: "conv3"
  param {
    lr_mult: 1
    decay_mult: 1
  }
  param {
    lr_mult: 2
    decay_mult: 0
  }
  convolution_param {
    num_output: 512
    pad: 1
    kernel_size: 3
    weight_filler {
      type: "gaussian"
      std: 0.01
    }
    bias_filler {
      type: "constant"
      value: 1
    }
  }
}
layer {
  name: "relu3"
  type: "ReLU"
  bottom: "conv3"
  top: "conv3"
}
layer {
  name: "conv4"
  type: "Convolution"
  bottom: "conv3"
  top: "conv4"
  param {
    lr_mult: 1
    decay_mult: 1
  }
  param {
    lr_mult: 2
    decay_mult: 0
  }
  convolution_param {
    num_output: 512
    pad: 1
    kernel_size: 3
    weight_filler {
      type: "gaussian"
      std: 0.01
    }
    bias_filler {
      type: "constant"
      value: 1
    }
  }
}
layer {
  name: "relu4"
  type: "ReLU"
  bottom: "conv4"
  top: "conv4"
}
layer {
  name: "norm2"
  type: "LRN"
  bottom: "conv4"
  top: "norm2"
  lrn_param {
    local_size: 5
    alpha: 0.0005
    beta: 0.75
    k: 2
  }
}
layer {
  name: "conv5"
  type: "Convolution"
  bottom: "norm2"
  top: "conv5"
  param {
    lr_mult: 1
    decay_mult: 1
  }
  param {
    lr_mult: 2
    decay_mult: 0
  }
  convolution_param {
    num_output: 512
    pad: 1
    kernel_size: 3
    weight_filler {
      type: "gaussian"
      std: 0.005
    }
    bias_filler {
      type: "constant"
      value: 1
    }
  }
}
layer {
  name: "relu5"
  type: "ReLU"
  bottom: "conv5"
  top: "conv5"
}
layer {
  name: "pool5"
  type: "Pooling"
  bottom: "conv5"
  top: "pool5"
  pooling_param {
    pool: MAX
    kernel_size: 3
    stride: 3
  }
}
layer {
  name: "fc6"
  type: "InnerProduct"
  bottom: "pool5"
  top: "fc6"
  inner_product_param {
    num_output: 4096
  }
}
layer {
  name: "relu6"
  type: "ReLU"
  bottom: "fc6"
  top: "fc6"
}
layer {
  name: "drop6"
  type: "Dropout"
  bottom: "fc6"
  top: "fc6"
  dropout_param {
    dropout_ratio: 0.5
  }
}
layer {
  name: "fc7"
  type: "InnerProduct"
  bottom: "fc6"
  top: "fc7"
  inner_product_param {
    num_output: 4096
  }
}
layer {
  name: "relu7"
  type: "ReLU"
  bottom: "fc7"
  top: "fc7"
}
layer {
  name: "drop7"
  type: "Dropout"
  bottom: "fc7"
  top: "fc7"
  dropout_param {
    dropout_ratio: 0.5
  }
}
layer {
  name: "fc8_oxford102"
  type: "InnerProduct"
  bottom: "fc7"
  top: "fc8_oxford102"
  param {
    lr_mult: 10
    decay_mult: 1
  }
  param {
    lr_mult: 20
    decay_mult: 0
  }
  inner_product_param {
    num_output: 102
    weight_filler {
      type: "gaussian"
      std: 0.01
    }
    bias_filler {
      type: "constant"
      value: 0
    }
  }
}
layer {
  name: "loss"
  type: "SoftmaxWithLoss"
  bottom: "fc8_oxford102"
  bottom: "label"
}
layer {
  name: "accuracy"
  type: "Accuracy"
  bottom: "fc8_oxford102"
  bottom: "label"
  top: "accuracy"
  include {
    phase: TEST
  }
}
I0517 12:19:08.088834 15819 layer_factory.hpp:77] Creating layer data
I0517 12:19:08.088857 15819 net.cpp:84] Creating Layer data
I0517 12:19:08.088876 15819 net.cpp:380] data -> data
I0517 12:19:08.088892 15819 net.cpp:380] data -> label
I0517 12:19:08.088906 15819 data_transformer.cpp:25] Loading mean file from: /home/stavsofe@st.technion.ac.il/caffe/data/ilsvrc12/imagenet_mean.binaryproto
I0517 12:19:08.091946 15819 image_data_layer.cpp:38] Opening file /home/stavsofe@st.technion.ac.il/caffe-oxford102/train.txt
I0517 12:19:08.092737 15819 image_data_layer.cpp:63] A total of 1020 images.
I0517 12:19:08.099624 15819 image_data_layer.cpp:90] output data size: 50,3,224,224
I0517 12:19:08.202885 15819 net.cpp:122] Setting up data
I0517 12:19:08.202924 15819 net.cpp:129] Top shape: 50 3 224 224 (7526400)
I0517 12:19:08.202930 15819 net.cpp:129] Top shape: 50 (50)
I0517 12:19:08.202934 15819 net.cpp:137] Memory required for data: 30105800
I0517 12:19:08.202941 15819 layer_factory.hpp:77] Creating layer label_data_1_split
I0517 12:19:08.202962 15819 net.cpp:84] Creating Layer label_data_1_split
I0517 12:19:08.202968 15819 net.cpp:406] label_data_1_split <- label
I0517 12:19:08.202976 15819 net.cpp:380] label_data_1_split -> label_data_1_split_0
I0517 12:19:08.202989 15819 net.cpp:380] label_data_1_split -> label_data_1_split_1
I0517 12:19:08.203119 15819 net.cpp:122] Setting up label_data_1_split
I0517 12:19:08.203132 15819 net.cpp:129] Top shape: 50 (50)
I0517 12:19:08.203137 15819 net.cpp:129] Top shape: 50 (50)
I0517 12:19:08.203142 15819 net.cpp:137] Memory required for data: 30106200
I0517 12:19:08.203150 15819 layer_factory.hpp:77] Creating layer conv1
I0517 12:19:08.203169 15819 net.cpp:84] Creating Layer conv1
I0517 12:19:08.203174 15819 net.cpp:406] conv1 <- data
I0517 12:19:08.203182 15819 net.cpp:380] conv1 -> conv1
I0517 12:19:08.226583 15819 net.cpp:122] Setting up conv1
I0517 12:19:08.226608 15819 net.cpp:129] Top shape: 50 96 109 109 (57028800)
I0517 12:19:08.226618 15819 net.cpp:137] Memory required for data: 258221400
I0517 12:19:08.226632 15819 layer_factory.hpp:77] Creating layer relu1
I0517 12:19:08.226642 15819 net.cpp:84] Creating Layer relu1
I0517 12:19:08.226647 15819 net.cpp:406] relu1 <- conv1
I0517 12:19:08.226655 15819 net.cpp:367] relu1 -> conv1 (in-place)
I0517 12:19:08.226986 15819 net.cpp:122] Setting up relu1
I0517 12:19:08.227000 15819 net.cpp:129] Top shape: 50 96 109 109 (57028800)
I0517 12:19:08.227006 15819 net.cpp:137] Memory required for data: 486336600
I0517 12:19:08.227013 15819 layer_factory.hpp:77] Creating layer norm1
I0517 12:19:08.227027 15819 net.cpp:84] Creating Layer norm1
I0517 12:19:08.227032 15819 net.cpp:406] norm1 <- conv1
I0517 12:19:08.227041 15819 net.cpp:380] norm1 -> norm1
I0517 12:19:08.232282 15819 net.cpp:122] Setting up norm1
I0517 12:19:08.232297 15819 net.cpp:129] Top shape: 50 96 109 109 (57028800)
I0517 12:19:08.232302 15819 net.cpp:137] Memory required for data: 714451800
I0517 12:19:08.232306 15819 layer_factory.hpp:77] Creating layer pool1
I0517 12:19:08.232316 15819 net.cpp:84] Creating Layer pool1
I0517 12:19:08.232321 15819 net.cpp:406] pool1 <- norm1
I0517 12:19:08.232329 15819 net.cpp:380] pool1 -> pool1
I0517 12:19:08.232380 15819 net.cpp:122] Setting up pool1
I0517 12:19:08.232388 15819 net.cpp:129] Top shape: 50 96 37 37 (6571200)
I0517 12:19:08.232393 15819 net.cpp:137] Memory required for data: 740736600
I0517 12:19:08.232396 15819 layer_factory.hpp:77] Creating layer conv2
I0517 12:19:08.232409 15819 net.cpp:84] Creating Layer conv2
I0517 12:19:08.232412 15819 net.cpp:406] conv2 <- pool1
I0517 12:19:08.232419 15819 net.cpp:380] conv2 -> conv2
I0517 12:19:08.257107 15819 net.cpp:122] Setting up conv2
I0517 12:19:08.257139 15819 net.cpp:129] Top shape: 50 256 33 33 (13939200)
I0517 12:19:08.257146 15819 net.cpp:137] Memory required for data: 796493400
I0517 12:19:08.257163 15819 layer_factory.hpp:77] Creating layer relu2
I0517 12:19:08.257174 15819 net.cpp:84] Creating Layer relu2
I0517 12:19:08.257179 15819 net.cpp:406] relu2 <- conv2
I0517 12:19:08.257189 15819 net.cpp:367] relu2 -> conv2 (in-place)
I0517 12:19:08.260457 15819 net.cpp:122] Setting up relu2
I0517 12:19:08.260507 15819 net.cpp:129] Top shape: 50 256 33 33 (13939200)
I0517 12:19:08.260512 15819 net.cpp:137] Memory required for data: 852250200
I0517 12:19:08.260517 15819 layer_factory.hpp:77] Creating layer pool2
I0517 12:19:08.260529 15819 net.cpp:84] Creating Layer pool2
I0517 12:19:08.260534 15819 net.cpp:406] pool2 <- conv2
I0517 12:19:08.260550 15819 net.cpp:380] pool2 -> pool2
I0517 12:19:08.260609 15819 net.cpp:122] Setting up pool2
I0517 12:19:08.260618 15819 net.cpp:129] Top shape: 50 256 17 17 (3699200)
I0517 12:19:08.260622 15819 net.cpp:137] Memory required for data: 867047000
I0517 12:19:08.260625 15819 layer_factory.hpp:77] Creating layer conv3
I0517 12:19:08.260639 15819 net.cpp:84] Creating Layer conv3
I0517 12:19:08.260643 15819 net.cpp:406] conv3 <- pool2
I0517 12:19:08.260651 15819 net.cpp:380] conv3 -> conv3
I0517 12:19:08.309284 15819 net.cpp:122] Setting up conv3
I0517 12:19:08.309315 15819 net.cpp:129] Top shape: 50 512 17 17 (7398400)
I0517 12:19:08.309320 15819 net.cpp:137] Memory required for data: 896640600
I0517 12:19:08.309337 15819 layer_factory.hpp:77] Creating layer relu3
I0517 12:19:08.309351 15819 net.cpp:84] Creating Layer relu3
I0517 12:19:08.309356 15819 net.cpp:406] relu3 <- conv3
I0517 12:19:08.309365 15819 net.cpp:367] relu3 -> conv3 (in-place)
I0517 12:19:08.316941 15819 net.cpp:122] Setting up relu3
I0517 12:19:08.316957 15819 net.cpp:129] Top shape: 50 512 17 17 (7398400)
I0517 12:19:08.316962 15819 net.cpp:137] Memory required for data: 926234200
I0517 12:19:08.316967 15819 layer_factory.hpp:77] Creating layer conv4
I0517 12:19:08.316982 15819 net.cpp:84] Creating Layer conv4
I0517 12:19:08.316987 15819 net.cpp:406] conv4 <- conv3
I0517 12:19:08.316997 15819 net.cpp:380] conv4 -> conv4
I0517 12:19:08.405704 15819 net.cpp:122] Setting up conv4
I0517 12:19:08.405736 15819 net.cpp:129] Top shape: 50 512 17 17 (7398400)
I0517 12:19:08.405741 15819 net.cpp:137] Memory required for data: 955827800
I0517 12:19:08.405751 15819 layer_factory.hpp:77] Creating layer relu4
I0517 12:19:08.405764 15819 net.cpp:84] Creating Layer relu4
I0517 12:19:08.405771 15819 net.cpp:406] relu4 <- conv4
I0517 12:19:08.405779 15819 net.cpp:367] relu4 -> conv4 (in-place)
I0517 12:19:08.411068 15819 net.cpp:122] Setting up relu4
I0517 12:19:08.411087 15819 net.cpp:129] Top shape: 50 512 17 17 (7398400)
I0517 12:19:08.411092 15819 net.cpp:137] Memory required for data: 985421400
I0517 12:19:08.411097 15819 layer_factory.hpp:77] Creating layer norm2
I0517 12:19:08.411106 15819 net.cpp:84] Creating Layer norm2
I0517 12:19:08.411111 15819 net.cpp:406] norm2 <- conv4
I0517 12:19:08.411119 15819 net.cpp:380] norm2 -> norm2
I0517 12:19:08.416633 15819 net.cpp:122] Setting up norm2
I0517 12:19:08.416649 15819 net.cpp:129] Top shape: 50 512 17 17 (7398400)
I0517 12:19:08.416654 15819 net.cpp:137] Memory required for data: 1015015000
I0517 12:19:08.416659 15819 layer_factory.hpp:77] Creating layer conv5
I0517 12:19:08.416674 15819 net.cpp:84] Creating Layer conv5
I0517 12:19:08.416679 15819 net.cpp:406] conv5 <- norm2
I0517 12:19:08.416688 15819 net.cpp:380] conv5 -> conv5
I0517 12:19:08.505733 15819 net.cpp:122] Setting up conv5
I0517 12:19:08.505764 15819 net.cpp:129] Top shape: 50 512 17 17 (7398400)
I0517 12:19:08.505769 15819 net.cpp:137] Memory required for data: 1044608600
I0517 12:19:08.505789 15819 layer_factory.hpp:77] Creating layer relu5
I0517 12:19:08.505806 15819 net.cpp:84] Creating Layer relu5
I0517 12:19:08.505813 15819 net.cpp:406] relu5 <- conv5
I0517 12:19:08.505821 15819 net.cpp:367] relu5 -> conv5 (in-place)
I0517 12:19:08.520637 15819 net.cpp:122] Setting up relu5
I0517 12:19:08.520655 15819 net.cpp:129] Top shape: 50 512 17 17 (7398400)
I0517 12:19:08.520659 15819 net.cpp:137] Memory required for data: 1074202200
I0517 12:19:08.520664 15819 layer_factory.hpp:77] Creating layer pool5
I0517 12:19:08.520683 15819 net.cpp:84] Creating Layer pool5
I0517 12:19:08.520691 15819 net.cpp:406] pool5 <- conv5
I0517 12:19:08.520709 15819 net.cpp:380] pool5 -> pool5
I0517 12:19:08.520810 15819 net.cpp:122] Setting up pool5
I0517 12:19:08.520822 15819 net.cpp:129] Top shape: 50 512 6 6 (921600)
I0517 12:19:08.520824 15819 net.cpp:137] Memory required for data: 1077888600
I0517 12:19:08.520828 15819 layer_factory.hpp:77] Creating layer fc6
I0517 12:19:08.520838 15819 net.cpp:84] Creating Layer fc6
I0517 12:19:08.520843 15819 net.cpp:406] fc6 <- pool5
I0517 12:19:08.520849 15819 net.cpp:380] fc6 -> fc6
I0517 12:19:08.731461 15819 net.cpp:122] Setting up fc6
I0517 12:19:08.731498 15819 net.cpp:129] Top shape: 50 4096 (204800)
I0517 12:19:08.731503 15819 net.cpp:137] Memory required for data: 1078707800
I0517 12:19:08.731513 15819 layer_factory.hpp:77] Creating layer relu6
I0517 12:19:08.731528 15819 net.cpp:84] Creating Layer relu6
I0517 12:19:08.731535 15819 net.cpp:406] relu6 <- fc6
I0517 12:19:08.731551 15819 net.cpp:367] relu6 -> fc6 (in-place)
I0517 12:19:08.731998 15819 net.cpp:122] Setting up relu6
I0517 12:19:08.732012 15819 net.cpp:129] Top shape: 50 4096 (204800)
I0517 12:19:08.732017 15819 net.cpp:137] Memory required for data: 1079527000
I0517 12:19:08.732022 15819 layer_factory.hpp:77] Creating layer drop6
I0517 12:19:08.732031 15819 net.cpp:84] Creating Layer drop6
I0517 12:19:08.732035 15819 net.cpp:406] drop6 <- fc6
I0517 12:19:08.732043 15819 net.cpp:367] drop6 -> fc6 (in-place)
I0517 12:19:08.732080 15819 net.cpp:122] Setting up drop6
I0517 12:19:08.732089 15819 net.cpp:129] Top shape: 50 4096 (204800)
I0517 12:19:08.732092 15819 net.cpp:137] Memory required for data: 1080346200
I0517 12:19:08.732096 15819 layer_factory.hpp:77] Creating layer fc7
I0517 12:19:08.732105 15819 net.cpp:84] Creating Layer fc7
I0517 12:19:08.732110 15819 net.cpp:406] fc7 <- fc6
I0517 12:19:08.732116 15819 net.cpp:380] fc7 -> fc7
I0517 12:19:08.771847 15819 net.cpp:122] Setting up fc7
I0517 12:19:08.771881 15819 net.cpp:129] Top shape: 50 4096 (204800)
I0517 12:19:08.771885 15819 net.cpp:137] Memory required for data: 1081165400
I0517 12:19:08.771896 15819 layer_factory.hpp:77] Creating layer relu7
I0517 12:19:08.771908 15819 net.cpp:84] Creating Layer relu7
I0517 12:19:08.771914 15819 net.cpp:406] relu7 <- fc7
I0517 12:19:08.771924 15819 net.cpp:367] relu7 -> fc7 (in-place)
I0517 12:19:08.772178 15819 net.cpp:122] Setting up relu7
I0517 12:19:08.772189 15819 net.cpp:129] Top shape: 50 4096 (204800)
I0517 12:19:08.772193 15819 net.cpp:137] Memory required for data: 1081984600
I0517 12:19:08.772197 15819 layer_factory.hpp:77] Creating layer drop7
I0517 12:19:08.772205 15819 net.cpp:84] Creating Layer drop7
I0517 12:19:08.772210 15819 net.cpp:406] drop7 <- fc7
I0517 12:19:08.772217 15819 net.cpp:367] drop7 -> fc7 (in-place)
I0517 12:19:08.772253 15819 net.cpp:122] Setting up drop7
I0517 12:19:08.772260 15819 net.cpp:129] Top shape: 50 4096 (204800)
I0517 12:19:08.772264 15819 net.cpp:137] Memory required for data: 1082803800
I0517 12:19:08.772269 15819 layer_factory.hpp:77] Creating layer fc8_oxford102
I0517 12:19:08.772279 15819 net.cpp:84] Creating Layer fc8_oxford102
I0517 12:19:08.772282 15819 net.cpp:406] fc8_oxford102 <- fc7
I0517 12:19:08.772289 15819 net.cpp:380] fc8_oxford102 -> fc8_oxford102
I0517 12:19:08.786293 15819 net.cpp:122] Setting up fc8_oxford102
I0517 12:19:08.786325 15819 net.cpp:129] Top shape: 50 102 (5100)
I0517 12:19:08.786329 15819 net.cpp:137] Memory required for data: 1082824200
I0517 12:19:08.786339 15819 layer_factory.hpp:77] Creating layer fc8_oxford102_fc8_oxford102_0_split
I0517 12:19:08.786351 15819 net.cpp:84] Creating Layer fc8_oxford102_fc8_oxford102_0_split
I0517 12:19:08.786357 15819 net.cpp:406] fc8_oxford102_fc8_oxford102_0_split <- fc8_oxford102
I0517 12:19:08.786366 15819 net.cpp:380] fc8_oxford102_fc8_oxford102_0_split -> fc8_oxford102_fc8_oxford102_0_split_0
I0517 12:19:08.786377 15819 net.cpp:380] fc8_oxford102_fc8_oxford102_0_split -> fc8_oxford102_fc8_oxford102_0_split_1
I0517 12:19:08.786427 15819 net.cpp:122] Setting up fc8_oxford102_fc8_oxford102_0_split
I0517 12:19:08.786434 15819 net.cpp:129] Top shape: 50 102 (5100)
I0517 12:19:08.786447 15819 net.cpp:129] Top shape: 50 102 (5100)
I0517 12:19:08.786475 15819 net.cpp:137] Memory required for data: 1082865000
I0517 12:19:08.786479 15819 layer_factory.hpp:77] Creating layer loss
I0517 12:19:08.786486 15819 net.cpp:84] Creating Layer loss
I0517 12:19:08.786491 15819 net.cpp:406] loss <- fc8_oxford102_fc8_oxford102_0_split_0
I0517 12:19:08.786496 15819 net.cpp:406] loss <- label_data_1_split_0
I0517 12:19:08.786504 15819 net.cpp:380] loss -> (automatic)
…
