…
I0602 15:27:15.568091  7148 net.cpp:51] Initializing net from parameters: 
name: "Oxford102_VGG_CNN_S"
state {
  phase: TRAIN
  level: 0
  stage: ""
}
layer {
  name: "data"
  type: "ImageData"
  top: "data"
  top: "label"
  include {
    phase: TRAIN
  }
  transform_param {
    mirror: true
    crop_size: 224
    mean_file: "/home/stavsofe@st.technion.ac.il/caffe/data/ilsvrc12/imagenet_mean.binaryproto"
  }
  image_data_param {
    source: "/home/stavsofe@st.technion.ac.il/caffe-oxford102/test.txt"
    batch_size: 50
    new_height: 256
    new_width: 256
  }
}
layer {
  name: "conv1"
  type: "Convolution"
  bottom: "data"
  top: "conv1"
  param {
    lr_mult: 0
    decay_mult: 0
  }
  param {
    lr_mult: 0
    decay_mult: 0
  }
  convolution_param {
    num_output: 96
    kernel_size: 7
    stride: 2
    weight_filler {
      type: "gaussian"
      std: 0.01
    }
    bias_filler {
      type: "constant"
      value: 0
    }
  }
}
layer {
  name: "relu1"
  type: "ReLU"
  bottom: "conv1"
  top: "conv1"
}
layer {
  name: "norm1"
  type: "LRN"
  bottom: "conv1"
  top: "norm1"
  lrn_param {
    local_size: 5
    alpha: 0.0005
    beta: 0.75
    k: 2
  }
}
layer {
  name: "pool1"
  type: "Pooling"
  bottom: "norm1"
  top: "pool1"
  pooling_param {
    pool: MAX
    kernel_size: 3
    stride: 3
  }
}
layer {
  name: "conv2"
  type: "Convolution"
  bottom: "pool1"
  top: "conv2"
  param {
    lr_mult: 0
    decay_mult: 0
  }
  param {
    lr_mult: 0
    decay_mult: 0
  }
  convolution_param {
    num_output: 256
    kernel_size: 5
    weight_filler {
      type: "gaussian"
      std: 0.01
    }
    bias_filler {
      type: "constant"
      value: 1
    }
  }
}
layer {
  name: "relu2"
  type: "ReLU"
  bottom: "conv2"
  top: "conv2"
}
layer {
  name: "pool2"
  type: "Pooling"
  bottom: "conv2"
  top: "pool2"
  pooling_param {
    pool: MAX
    kernel_size: 2
    stride: 2
  }
}
layer {
  name: "conv3"
  type: "Convolution"
  bottom: "pool2"
  top: "conv3"
  param {
    lr_mult: 0
    decay_mult: 0
  }
  param {
    lr_mult: 0
    decay_mult: 0
  }
  convolution_param {
    num_output: 512
    pad: 1
    kernel_size: 3
    weight_filler {
      type: "gaussian"
      std: 0.01
    }
    bias_filler {
      type: "constant"
      value: 1
    }
  }
}
layer {
  name: "relu3"
  type: "ReLU"
  bottom: "conv3"
  top: "conv3"
}
layer {
  name: "conv4"
  type: "Convolution"
  bottom: "conv3"
  top: "conv4"
  param {
    lr_mult: 0
    decay_mult: 0
  }
  param {
    lr_mult: 0
    decay_mult: 0
  }
  convolution_param {
    num_output: 512
    pad: 1
    kernel_size: 3
    weight_filler {
      type: "gaussian"
      std: 0.01
    }
    bias_filler {
      type: "constant"
      value: 1
    }
  }
}
layer {
  name: "relu4"
  type: "ReLU"
  bottom: "conv4"
  top: "conv4"
}
layer {
  name: "conv5"
  type: "Convolution"
  bottom: "conv4"
  top: "conv5"
  param {
    lr_mult: 0
    decay_mult: 0
  }
  param {
    lr_mult: 0
    decay_mult: 0
  }
  convolution_param {
    num_output: 512
    pad: 1
    kernel_size: 3
    weight_filler {
      type: "gaussian"
      std: 0.005
    }
    bias_filler {
      type: "constant"
      value: 1
    }
  }
}
layer {
  name: "relu5"
  type: "ReLU"
  bottom: "conv5"
  top: "conv5"
}
layer {
  name: "pool5"
  type: "Pooling"
  bottom: "conv5"
  top: "pool5"
  pooling_param {
    pool: MAX
    kernel_size: 3
    stride: 3
  }
}
layer {
  name: "fc6"
  type: "InnerProduct"
  bottom: "pool5"
  top: "fc6"
  inner_product_param {
    num_output: 4096
  }
}
layer {
  name: "relu6"
  type: "ReLU"
  bottom: "fc6"
  top: "fc6"
}
layer {
  name: "drop6"
  type: "Dropout"
  bottom: "fc6"
  top: "fc6"
  dropout_param {
    dropout_ratio: 0.5
  }
}
layer {
  name: "fc7"
  type: "InnerProduct"
  bottom: "fc6"
  top: "fc7"
  inner_product_param {
    num_output: 4096
  }
}
layer {
  name: "relu7"
  type: "ReLU"
  bottom: "fc7"
  top: "fc7"
}
layer {
  name: "drop7"
  type: "Dropout"
  bottom: "fc7"
  top: "fc7"
  dropout_param {
    dropout_ratio: 0.5
  }
}
layer {
  name: "fc8_oxford102"
  type: "InnerProduct"
  bottom: "fc7"
  top: "fc8_oxford102"
  param {
    lr_mult: 10
    decay_mult: 0
  }
  param {
    lr_mult: 20
    decay_mult: 0
  }
  inner_product_param {
    num_output: 102
    weight_filler {
      type: "gaussian"
      std: 0.01
    }
    bias_filler {
      type: "constant"
      value: 0
    }
  }
}
layer {
  name: "loss"
  type: "SoftmaxWithLoss"
  bottom: "fc8_oxford102"
  bottom: "label"
}
I0602 15:27:15.568255  7148 layer_factory.hpp:77] Creating layer data
I0602 15:27:15.568294  7148 net.cpp:84] Creating Layer data
I0602 15:27:15.568312  7148 net.cpp:380] data -> data
I0602 15:27:15.568341  7148 net.cpp:380] data -> label
I0602 15:27:15.568362  7148 data_transformer.cpp:25] Loading mean file from: /home/stavsofe@st.technion.ac.il/caffe/data/ilsvrc12/imagenet_mean.binaryproto
I0602 15:27:15.621197  7148 image_data_layer.cpp:38] Opening file /home/stavsofe@st.technion.ac.il/caffe-oxford102/test.txt
I0602 15:27:15.623829  7148 image_data_layer.cpp:63] A total of 6149 images.
I0602 15:27:15.774462  7148 image_data_layer.cpp:90] output data size: 50,3,224,224
I0602 15:27:15.847748  7148 net.cpp:122] Setting up data
I0602 15:27:15.847798  7148 net.cpp:129] Top shape: 50 3 224 224 (7526400)
I0602 15:27:15.847806  7148 net.cpp:129] Top shape: 50 (50)
I0602 15:27:15.847811  7148 net.cpp:137] Memory required for data: 30105800
I0602 15:27:15.847821  7148 layer_factory.hpp:77] Creating layer conv1
I0602 15:27:15.847848  7148 net.cpp:84] Creating Layer conv1
I0602 15:27:15.847856  7148 net.cpp:406] conv1 <- data
I0602 15:27:15.847874  7148 net.cpp:380] conv1 -> conv1
I0602 15:27:16.062266  7148 net.cpp:122] Setting up conv1
I0602 15:27:16.062301  7148 net.cpp:129] Top shape: 50 96 109 109 (57028800)
I0602 15:27:16.062306  7148 net.cpp:137] Memory required for data: 258221000
I0602 15:27:16.062338  7148 layer_factory.hpp:77] Creating layer relu1
I0602 15:27:16.062356  7148 net.cpp:84] Creating Layer relu1
I0602 15:27:16.062363  7148 net.cpp:406] relu1 <- conv1
I0602 15:27:16.062371  7148 net.cpp:367] relu1 -> conv1 (in-place)
I0602 15:27:16.062577  7148 net.cpp:122] Setting up relu1
I0602 15:27:16.062588  7148 net.cpp:129] Top shape: 50 96 109 109 (57028800)
I0602 15:27:16.062592  7148 net.cpp:137] Memory required for data: 486336200
I0602 15:27:16.062597  7148 layer_factory.hpp:77] Creating layer norm1
I0602 15:27:16.062609  7148 net.cpp:84] Creating Layer norm1
I0602 15:27:16.062614  7148 net.cpp:406] norm1 <- conv1
I0602 15:27:16.062620  7148 net.cpp:380] norm1 -> norm1
I0602 15:27:16.062911  7148 net.cpp:122] Setting up norm1
I0602 15:27:16.062923  7148 net.cpp:129] Top shape: 50 96 109 109 (57028800)
I0602 15:27:16.062928  7148 net.cpp:137] Memory required for data: 714451400
I0602 15:27:16.062932  7148 layer_factory.hpp:77] Creating layer pool1
I0602 15:27:16.062942  7148 net.cpp:84] Creating Layer pool1
I0602 15:27:16.062947  7148 net.cpp:406] pool1 <- norm1
I0602 15:27:16.062954  7148 net.cpp:380] pool1 -> pool1
I0602 15:27:16.063005  7148 net.cpp:122] Setting up pool1
I0602 15:27:16.063020  7148 net.cpp:129] Top shape: 50 96 37 37 (6571200)
I0602 15:27:16.063050  7148 net.cpp:137] Memory required for data: 740736200
I0602 15:27:16.063055  7148 layer_factory.hpp:77] Creating layer conv2
I0602 15:27:16.063068  7148 net.cpp:84] Creating Layer conv2
I0602 15:27:16.063072  7148 net.cpp:406] conv2 <- pool1
I0602 15:27:16.063079  7148 net.cpp:380] conv2 -> conv2
I0602 15:27:16.083951  7148 net.cpp:122] Setting up conv2
I0602 15:27:16.083969  7148 net.cpp:129] Top shape: 50 256 33 33 (13939200)
I0602 15:27:16.083974  7148 net.cpp:137] Memory required for data: 796493000
I0602 15:27:16.083986  7148 layer_factory.hpp:77] Creating layer relu2
I0602 15:27:16.083995  7148 net.cpp:84] Creating Layer relu2
I0602 15:27:16.084000  7148 net.cpp:406] relu2 <- conv2
I0602 15:27:16.084007  7148 net.cpp:367] relu2 -> conv2 (in-place)
I0602 15:27:16.084187  7148 net.cpp:122] Setting up relu2
I0602 15:27:16.084198  7148 net.cpp:129] Top shape: 50 256 33 33 (13939200)
I0602 15:27:16.084203  7148 net.cpp:137] Memory required for data: 852249800
I0602 15:27:16.084206  7148 layer_factory.hpp:77] Creating layer pool2
I0602 15:27:16.084214  7148 net.cpp:84] Creating Layer pool2
I0602 15:27:16.084218  7148 net.cpp:406] pool2 <- conv2
I0602 15:27:16.084224  7148 net.cpp:380] pool2 -> pool2
I0602 15:27:16.084266  7148 net.cpp:122] Setting up pool2
I0602 15:27:16.084273  7148 net.cpp:129] Top shape: 50 256 17 17 (3699200)
I0602 15:27:16.084277  7148 net.cpp:137] Memory required for data: 867046600
I0602 15:27:16.084281  7148 layer_factory.hpp:77] Creating layer conv3
I0602 15:27:16.084295  7148 net.cpp:84] Creating Layer conv3
I0602 15:27:16.084298  7148 net.cpp:406] conv3 <- pool2
I0602 15:27:16.084306  7148 net.cpp:380] conv3 -> conv3
I0602 15:27:16.123198  7148 net.cpp:122] Setting up conv3
I0602 15:27:16.123220  7148 net.cpp:129] Top shape: 50 512 17 17 (7398400)
I0602 15:27:16.123225  7148 net.cpp:137] Memory required for data: 896640200
I0602 15:27:16.123245  7148 layer_factory.hpp:77] Creating layer relu3
I0602 15:27:16.123255  7148 net.cpp:84] Creating Layer relu3
I0602 15:27:16.123261  7148 net.cpp:406] relu3 <- conv3
I0602 15:27:16.123268  7148 net.cpp:367] relu3 -> conv3 (in-place)
I0602 15:27:16.123589  7148 net.cpp:122] Setting up relu3
I0602 15:27:16.123606  7148 net.cpp:129] Top shape: 50 512 17 17 (7398400)
I0602 15:27:16.123611  7148 net.cpp:137] Memory required for data: 926233800
I0602 15:27:16.123616  7148 layer_factory.hpp:77] Creating layer conv4
I0602 15:27:16.123636  7148 net.cpp:84] Creating Layer conv4
I0602 15:27:16.123642  7148 net.cpp:406] conv4 <- conv3
I0602 15:27:16.123661  7148 net.cpp:380] conv4 -> conv4
I0602 15:27:16.199470  7148 net.cpp:122] Setting up conv4
I0602 15:27:16.199496  7148 net.cpp:129] Top shape: 50 512 17 17 (7398400)
I0602 15:27:16.199501  7148 net.cpp:137] Memory required for data: 955827400
I0602 15:27:16.199511  7148 layer_factory.hpp:77] Creating layer relu4
I0602 15:27:16.199522  7148 net.cpp:84] Creating Layer relu4
I0602 15:27:16.199527  7148 net.cpp:406] relu4 <- conv4
I0602 15:27:16.199534  7148 net.cpp:367] relu4 -> conv4 (in-place)
I0602 15:27:16.199821  7148 net.cpp:122] Setting up relu4
I0602 15:27:16.199836  7148 net.cpp:129] Top shape: 50 512 17 17 (7398400)
I0602 15:27:16.199839  7148 net.cpp:137] Memory required for data: 985421000
I0602 15:27:16.199844  7148 layer_factory.hpp:77] Creating layer conv5
I0602 15:27:16.199859  7148 net.cpp:84] Creating Layer conv5
I0602 15:27:16.199864  7148 net.cpp:406] conv5 <- conv4
I0602 15:27:16.199873  7148 net.cpp:380] conv5 -> conv5
I0602 15:27:16.276147  7148 net.cpp:122] Setting up conv5
I0602 15:27:16.276180  7148 net.cpp:129] Top shape: 50 512 17 17 (7398400)
I0602 15:27:16.276185  7148 net.cpp:137] Memory required for data: 1015014600
I0602 15:27:16.276201  7148 layer_factory.hpp:77] Creating layer relu5
I0602 15:27:16.276213  7148 net.cpp:84] Creating Layer relu5
I0602 15:27:16.276219  7148 net.cpp:406] relu5 <- conv5
I0602 15:27:16.276228  7148 net.cpp:367] relu5 -> conv5 (in-place)
I0602 15:27:16.276427  7148 net.cpp:122] Setting up relu5
I0602 15:27:16.276468  7148 net.cpp:129] Top shape: 50 512 17 17 (7398400)
I0602 15:27:16.276473  7148 net.cpp:137] Memory required for data: 1044608200
I0602 15:27:16.276476  7148 layer_factory.hpp:77] Creating layer pool5
I0602 15:27:16.276486  7148 net.cpp:84] Creating Layer pool5
I0602 15:27:16.276491  7148 net.cpp:406] pool5 <- conv5
I0602 15:27:16.276499  7148 net.cpp:380] pool5 -> pool5
I0602 15:27:16.276614  7148 net.cpp:122] Setting up pool5
I0602 15:27:16.276626  7148 net.cpp:129] Top shape: 50 512 6 6 (921600)
I0602 15:27:16.276630  7148 net.cpp:137] Memory required for data: 1048294600
I0602 15:27:16.276635  7148 layer_factory.hpp:77] Creating layer fc6
I0602 15:27:16.276648  7148 net.cpp:84] Creating Layer fc6
I0602 15:27:16.276653  7148 net.cpp:406] fc6 <- pool5
I0602 15:27:16.276661  7148 net.cpp:380] fc6 -> fc6
I0602 15:27:16.450275  7148 net.cpp:122] Setting up fc6
I0602 15:27:16.450314  7148 net.cpp:129] Top shape: 50 4096 (204800)
I0602 15:27:16.450320  7148 net.cpp:137] Memory required for data: 1049113800
I0602 15:27:16.450332  7148 layer_factory.hpp:77] Creating layer relu6
I0602 15:27:16.450351  7148 net.cpp:84] Creating Layer relu6
I0602 15:27:16.450357  7148 net.cpp:406] relu6 <- fc6
I0602 15:27:16.450366  7148 net.cpp:367] relu6 -> fc6 (in-place)
I0602 15:27:16.450841  7148 net.cpp:122] Setting up relu6
I0602 15:27:16.450857  7148 net.cpp:129] Top shape: 50 4096 (204800)
I0602 15:27:16.450861  7148 net.cpp:137] Memory required for data: 1049933000
I0602 15:27:16.450866  7148 layer_factory.hpp:77] Creating layer drop6
I0602 15:27:16.450896  7148 net.cpp:84] Creating Layer drop6
I0602 15:27:16.450902  7148 net.cpp:406] drop6 <- fc6
I0602 15:27:16.450909  7148 net.cpp:367] drop6 -> fc6 (in-place)
I0602 15:27:16.450953  7148 net.cpp:122] Setting up drop6
I0602 15:27:16.450961  7148 net.cpp:129] Top shape: 50 4096 (204800)
I0602 15:27:16.450965  7148 net.cpp:137] Memory required for data: 1050752200
I0602 15:27:16.450969  7148 layer_factory.hpp:77] Creating layer fc7
I0602 15:27:16.450978  7148 net.cpp:84] Creating Layer fc7
I0602 15:27:16.450983  7148 net.cpp:406] fc7 <- fc6
I0602 15:27:16.450990  7148 net.cpp:380] fc7 -> fc7
I0602 15:27:16.491791  7148 net.cpp:122] Setting up fc7
I0602 15:27:16.491832  7148 net.cpp:129] Top shape: 50 4096 (204800)
I0602 15:27:16.491838  7148 net.cpp:137] Memory required for data: 1051571400
I0602 15:27:16.491849  7148 layer_factory.hpp:77] Creating layer relu7
I0602 15:27:16.491863  7148 net.cpp:84] Creating Layer relu7
I0602 15:27:16.491868  7148 net.cpp:406] relu7 <- fc7
I0602 15:27:16.491880  7148 net.cpp:367] relu7 -> fc7 (in-place)
I0602 15:27:16.492151  7148 net.cpp:122] Setting up relu7
I0602 15:27:16.492162  7148 net.cpp:129] Top shape: 50 4096 (204800)
I0602 15:27:16.492167  7148 net.cpp:137] Memory required for data: 1052390600
I0602 15:27:16.492172  7148 layer_factory.hpp:77] Creating layer drop7
I0602 15:27:16.492182  7148 net.cpp:84] Creating Layer drop7
I0602 15:27:16.492187  7148 net.cpp:406] drop7 <- fc7
I0602 15:27:16.492192  7148 net.cpp:367] drop7 -> fc7 (in-place)
I0602 15:27:16.492231  7148 net.cpp:122] Setting up drop7
I0602 15:27:16.492238  7148 net.cpp:129] Top shape: 50 4096 (204800)
I0602 15:27:16.492242  7148 net.cpp:137] Memory required for data: 1053209800
I0602 15:27:16.492246  7148 layer_factory.hpp:77] Creating layer fc8_oxford102
I0602 15:27:16.492256  7148 net.cpp:84] Creating Layer fc8_oxford102
I0602 15:27:16.492260  7148 net.cpp:406] fc8_oxford102 <- fc7
I0602 15:27:16.492269  7148 net.cpp:380] fc8_oxford102 -> fc8_oxford102
I0602 15:27:16.505834  7148 net.cpp:122] Setting up fc8_oxford102
I0602 15:27:16.505854  7148 net.cpp:129] Top shape: 50 102 (5100)
I0602 15:27:16.505859  7148 net.cpp:137] Memory required for data: 1053230200
I0602 15:27:16.505867  7148 layer_factory.hpp:77] Creating layer loss
I0602 15:27:16.505880  7148 net.cpp:84] Creating Layer loss
I0602 15:27:16.505887  7148 net.cpp:406] loss <- fc8_oxford102
I0602 15:27:16.505892  7148 net.cpp:406] loss <- label
I0602 15:27:16.505908  7148 net.cpp:380] loss -> (automatic)
I0602 15:27:16.505949  7148 layer_factory.hpp:77] Creating layer loss
…
I0602 15:27:16.508113  7148 net.cpp:294] The NetState phase (1) differed from the phase (0) specified by a rule in layer data
I0602 15:27:16.508327  7148 net.cpp:51] Initializing net from parameters: 
name: "Oxford102_VGG_CNN_S"
state {
  phase: TEST
}
layer {
  name: "data"
  type: "ImageData"
  top: "data"
  top: "label"
  include {
    phase: TEST
  }
  transform_param {
    mirror: false
    crop_size: 224
    mean_file: "/home/stavsofe@st.technion.ac.il/caffe/data/ilsvrc12/imagenet_mean.binaryproto"
  }
  image_data_param {
    source: "/home/stavsofe@st.technion.ac.il/caffe-oxford102/train.txt"
    batch_size: 50
    new_height: 256
    new_width: 256
  }
}
layer {
  name: "conv1"
  type: "Convolution"
  bottom: "data"
  top: "conv1"
  param {
    lr_mult: 0
    decay_mult: 0
  }
  param {
    lr_mult: 0
    decay_mult: 0
  }
  convolution_param {
    num_output: 96
    kernel_size: 7
    stride: 2
    weight_filler {
      type: "gaussian"
      std: 0.01
    }
    bias_filler {
      type: "constant"
      value: 0
    }
  }
}
layer {
  name: "relu1"
  type: "ReLU"
  bottom: "conv1"
  top: "conv1"
}
layer {
  name: "norm1"
  type: "LRN"
  bottom: "conv1"
  top: "norm1"
  lrn_param {
    local_size: 5
    alpha: 0.0005
    beta: 0.75
    k: 2
  }
}
layer {
  name: "pool1"
  type: "Pooling"
  bottom: "norm1"
  top: "pool1"
  pooling_param {
    pool: MAX
    kernel_size: 3
    stride: 3
  }
}
layer {
  name: "conv2"
  type: "Convolution"
  bottom: "pool1"
  top: "conv2"
  param {
    lr_mult: 0
    decay_mult: 0
  }
  param {
    lr_mult: 0
    decay_mult: 0
  }
  convolution_param {
    num_output: 256
    kernel_size: 5
    weight_filler {
      type: "gaussian"
      std: 0.01
    }
    bias_filler {
      type: "constant"
      value: 1
    }
  }
}
layer {
  name: "relu2"
  type: "ReLU"
  bottom: "conv2"
  top: "conv2"
}
layer {
  name: "pool2"
  type: "Pooling"
  bottom: "conv2"
  top: "pool2"
  pooling_param {
    pool: MAX
    kernel_size: 2
    stride: 2
  }
}
layer {
  name: "conv3"
  type: "Convolution"
  bottom: "pool2"
  top: "conv3"
  param {
    lr_mult: 0
    decay_mult: 0
  }
  param {
    lr_mult: 0
    decay_mult: 0
  }
  convolution_param {
    num_output: 512
    pad: 1
    kernel_size: 3
    weight_filler {
      type: "gaussian"
      std: 0.01
    }
    bias_filler {
      type: "constant"
      value: 1
    }
  }
}
layer {
  name: "relu3"
  type: "ReLU"
  bottom: "conv3"
  top: "conv3"
}
layer {
  name: "conv4"
  type: "Convolution"
  bottom: "conv3"
  top: "conv4"
  param {
    lr_mult: 0
    decay_mult: 0
  }
  param {
    lr_mult: 0
    decay_mult: 0
  }
  convolution_param {
    num_output: 512
    pad: 1
    kernel_size: 3
    weight_filler {
      type: "gaussian"
      std: 0.01
    }
    bias_filler {
      type: "constant"
      value: 1
    }
  }
}
layer {
  name: "relu4"
  type: "ReLU"
  bottom: "conv4"
  top: "conv4"
}
layer {
  name: "conv5"
  type: "Convolution"
  bottom: "conv4"
  top: "conv5"
  param {
    lr_mult: 0
    decay_mult: 0
  }
  param {
    lr_mult: 0
    decay_mult: 0
  }
  convolution_param {
    num_output: 512
    pad: 1
    kernel_size: 3
    weight_filler {
      type: "gaussian"
      std: 0.005
    }
    bias_filler {
      type: "constant"
      value: 1
    }
  }
}
layer {
  name: "relu5"
  type: "ReLU"
  bottom: "conv5"
  top: "conv5"
}
layer {
  name: "pool5"
  type: "Pooling"
  bottom: "conv5"
  top: "pool5"
  pooling_param {
    pool: MAX
    kernel_size: 3
    stride: 3
  }
}
layer {
  name: "fc6"
  type: "InnerProduct"
  bottom: "pool5"
  top: "fc6"
  inner_product_param {
    num_output: 4096
  }
}
layer {
  name: "relu6"
  type: "ReLU"
  bottom: "fc6"
  top: "fc6"
}
layer {
  name: "drop6"
  type: "Dropout"
  bottom: "fc6"
  top: "fc6"
  dropout_param {
    dropout_ratio: 0.5
  }
}
layer {
  name: "fc7"
  type: "InnerProduct"
  bottom: "fc6"
  top: "fc7"
  inner_product_param {
    num_output: 4096
  }
}
layer {
  name: "relu7"
  type: "ReLU"
  bottom: "fc7"
  top: "fc7"
}
layer {
  name: "drop7"
  type: "Dropout"
  bottom: "fc7"
  top: "fc7"
  dropout_param {
    dropout_ratio: 0.5
  }
}
layer {
  name: "fc8_oxford102"
  type: "InnerProduct"
  bottom: "fc7"
  top: "fc8_oxford102"
  param {
    lr_mult: 10
    decay_mult: 0
  }
  param {
    lr_mult: 20
    decay_mult: 0
  }
  inner_product_param {
    num_output: 102
    weight_filler {
      type: "gaussian"
      std: 0.01
    }
    bias_filler {
      type: "constant"
      value: 0
    }
  }
}
layer {
  name: "loss"
  type: "SoftmaxWithLoss"
  bottom: "fc8_oxford102"
  bottom: "label"
}
layer {
  name: "accuracy"
  type: "Accuracy"
  bottom: "fc8_oxford102"
  bottom: "label"
  top: "accuracy"
  include {
    phase: TEST
  }
}
I0602 15:27:16.508481  7148 layer_factory.hpp:77] Creating layer data
I0602 15:27:16.508499  7148 net.cpp:84] Creating Layer data
I0602 15:27:16.508505  7148 net.cpp:380] data -> data
I0602 15:27:16.508517  7148 net.cpp:380] data -> label
I0602 15:27:16.508525  7148 data_transformer.cpp:25] Loading mean file from: /home/stavsofe@st.technion.ac.il/caffe/data/ilsvrc12/imagenet_mean.binaryproto
I0602 15:27:16.620743  7148 image_data_layer.cpp:38] Opening file /home/stavsofe@st.technion.ac.il/caffe-oxford102/train.txt
I0602 15:27:16.621498  7148 image_data_layer.cpp:63] A total of 1020 images.
I0602 15:27:16.728219  7148 image_data_layer.cpp:90] output data size: 50,3,224,224
I0602 15:27:16.802620  7148 net.cpp:122] Setting up data
I0602 15:27:16.802659  7148 net.cpp:129] Top shape: 50 3 224 224 (7526400)
I0602 15:27:16.802693  7148 net.cpp:129] Top shape: 50 (50)
I0602 15:27:16.802698  7148 net.cpp:137] Memory required for data: 30105800
I0602 15:27:16.802706  7148 layer_factory.hpp:77] Creating layer label_data_1_split
I0602 15:27:16.802726  7148 net.cpp:84] Creating Layer label_data_1_split
I0602 15:27:16.802732  7148 net.cpp:406] label_data_1_split <- label
I0602 15:27:16.802742  7148 net.cpp:380] label_data_1_split -> label_data_1_split_0
I0602 15:27:16.802755  7148 net.cpp:380] label_data_1_split -> label_data_1_split_1
I0602 15:27:16.802953  7148 net.cpp:122] Setting up label_data_1_split
I0602 15:27:16.802963  7148 net.cpp:129] Top shape: 50 (50)
I0602 15:27:16.802969  7148 net.cpp:129] Top shape: 50 (50)
I0602 15:27:16.802973  7148 net.cpp:137] Memory required for data: 30106200
I0602 15:27:16.802978  7148 layer_factory.hpp:77] Creating layer conv1
I0602 15:27:16.802992  7148 net.cpp:84] Creating Layer conv1
I0602 15:27:16.802997  7148 net.cpp:406] conv1 <- data
I0602 15:27:16.803005  7148 net.cpp:380] conv1 -> conv1
I0602 15:27:16.804744  7148 net.cpp:122] Setting up conv1
I0602 15:27:16.804764  7148 net.cpp:129] Top shape: 50 96 109 109 (57028800)
I0602 15:27:16.804769  7148 net.cpp:137] Memory required for data: 258221400
I0602 15:27:16.804781  7148 layer_factory.hpp:77] Creating layer relu1
I0602 15:27:16.804791  7148 net.cpp:84] Creating Layer relu1
I0602 15:27:16.804795  7148 net.cpp:406] relu1 <- conv1
I0602 15:27:16.804803  7148 net.cpp:367] relu1 -> conv1 (in-place)
I0602 15:27:16.804991  7148 net.cpp:122] Setting up relu1
I0602 15:27:16.805001  7148 net.cpp:129] Top shape: 50 96 109 109 (57028800)
I0602 15:27:16.805006  7148 net.cpp:137] Memory required for data: 486336600
I0602 15:27:16.805009  7148 layer_factory.hpp:77] Creating layer norm1
I0602 15:27:16.805021  7148 net.cpp:84] Creating Layer norm1
I0602 15:27:16.805024  7148 net.cpp:406] norm1 <- conv1
I0602 15:27:16.805032  7148 net.cpp:380] norm1 -> norm1
I0602 15:27:16.805338  7148 net.cpp:122] Setting up norm1
I0602 15:27:16.805351  7148 net.cpp:129] Top shape: 50 96 109 109 (57028800)
I0602 15:27:16.805356  7148 net.cpp:137] Memory required for data: 714451800
I0602 15:27:16.805361  7148 layer_factory.hpp:77] Creating layer pool1
I0602 15:27:16.805368  7148 net.cpp:84] Creating Layer pool1
I0602 15:27:16.805373  7148 net.cpp:406] pool1 <- norm1
I0602 15:27:16.805380  7148 net.cpp:380] pool1 -> pool1
I0602 15:27:16.805423  7148 net.cpp:122] Setting up pool1
I0602 15:27:16.805429  7148 net.cpp:129] Top shape: 50 96 37 37 (6571200)
I0602 15:27:16.805433  7148 net.cpp:137] Memory required for data: 740736600
I0602 15:27:16.805436  7148 layer_factory.hpp:77] Creating layer conv2
I0602 15:27:16.805447  7148 net.cpp:84] Creating Layer conv2
I0602 15:27:16.805451  7148 net.cpp:406] conv2 <- pool1
I0602 15:27:16.805459  7148 net.cpp:380] conv2 -> conv2
I0602 15:27:16.827167  7148 net.cpp:122] Setting up conv2
I0602 15:27:16.827188  7148 net.cpp:129] Top shape: 50 256 33 33 (13939200)
I0602 15:27:16.827193  7148 net.cpp:137] Memory required for data: 796493400
I0602 15:27:16.827205  7148 layer_factory.hpp:77] Creating layer relu2
I0602 15:27:16.827215  7148 net.cpp:84] Creating Layer relu2
I0602 15:27:16.827220  7148 net.cpp:406] relu2 <- conv2
I0602 15:27:16.827227  7148 net.cpp:367] relu2 -> conv2 (in-place)
I0602 15:27:16.827417  7148 net.cpp:122] Setting up relu2
I0602 15:27:16.827427  7148 net.cpp:129] Top shape: 50 256 33 33 (13939200)
I0602 15:27:16.827431  7148 net.cpp:137] Memory required for data: 852250200
I0602 15:27:16.827435  7148 layer_factory.hpp:77] Creating layer pool2
I0602 15:27:16.827445  7148 net.cpp:84] Creating Layer pool2
I0602 15:27:16.827450  7148 net.cpp:406] pool2 <- conv2
I0602 15:27:16.827457  7148 net.cpp:380] pool2 -> pool2
I0602 15:27:16.827507  7148 net.cpp:122] Setting up pool2
I0602 15:27:16.827514  7148 net.cpp:129] Top shape: 50 256 17 17 (3699200)
I0602 15:27:16.827518  7148 net.cpp:137] Memory required for data: 867047000
I0602 15:27:16.827522  7148 layer_factory.hpp:77] Creating layer conv3
I0602 15:27:16.827550  7148 net.cpp:84] Creating Layer conv3
I0602 15:27:16.827574  7148 net.cpp:406] conv3 <- pool2
I0602 15:27:16.827584  7148 net.cpp:380] conv3 -> conv3
I0602 15:27:16.867372  7148 net.cpp:122] Setting up conv3
I0602 15:27:16.867393  7148 net.cpp:129] Top shape: 50 512 17 17 (7398400)
I0602 15:27:16.867398  7148 net.cpp:137] Memory required for data: 896640600
I0602 15:27:16.867411  7148 layer_factory.hpp:77] Creating layer relu3
I0602 15:27:16.867421  7148 net.cpp:84] Creating Layer relu3
I0602 15:27:16.867425  7148 net.cpp:406] relu3 <- conv3
I0602 15:27:16.867434  7148 net.cpp:367] relu3 -> conv3 (in-place)
I0602 15:27:16.867635  7148 net.cpp:122] Setting up relu3
I0602 15:27:16.867647  7148 net.cpp:129] Top shape: 50 512 17 17 (7398400)
I0602 15:27:16.867651  7148 net.cpp:137] Memory required for data: 926234200
I0602 15:27:16.867656  7148 layer_factory.hpp:77] Creating layer conv4
I0602 15:27:16.867668  7148 net.cpp:84] Creating Layer conv4
I0602 15:27:16.867672  7148 net.cpp:406] conv4 <- conv3
I0602 15:27:16.867681  7148 net.cpp:380] conv4 -> conv4
I0602 15:27:16.947162  7148 net.cpp:122] Setting up conv4
I0602 15:27:16.947196  7148 net.cpp:129] Top shape: 50 512 17 17 (7398400)
I0602 15:27:16.947201  7148 net.cpp:137] Memory required for data: 955827800
I0602 15:27:16.947211  7148 layer_factory.hpp:77] Creating layer relu4
I0602 15:27:16.947224  7148 net.cpp:84] Creating Layer relu4
I0602 15:27:16.947230  7148 net.cpp:406] relu4 <- conv4
I0602 15:27:16.947239  7148 net.cpp:367] relu4 -> conv4 (in-place)
I0602 15:27:16.947513  7148 net.cpp:122] Setting up relu4
I0602 15:27:16.947527  7148 net.cpp:129] Top shape: 50 512 17 17 (7398400)
I0602 15:27:16.947531  7148 net.cpp:137] Memory required for data: 985421400
I0602 15:27:16.947536  7148 layer_factory.hpp:77] Creating layer conv5
I0602 15:27:16.947561  7148 net.cpp:84] Creating Layer conv5
I0602 15:27:16.947566  7148 net.cpp:406] conv5 <- conv4
I0602 15:27:16.947576  7148 net.cpp:380] conv5 -> conv5
I0602 15:27:17.026295  7148 net.cpp:122] Setting up conv5
I0602 15:27:17.026321  7148 net.cpp:129] Top shape: 50 512 17 17 (7398400)
I0602 15:27:17.026327  7148 net.cpp:137] Memory required for data: 1015015000
I0602 15:27:17.026342  7148 layer_factory.hpp:77] Creating layer relu5
I0602 15:27:17.026355  7148 net.cpp:84] Creating Layer relu5
I0602 15:27:17.026360  7148 net.cpp:406] relu5 <- conv5
I0602 15:27:17.026368  7148 net.cpp:367] relu5 -> conv5 (in-place)
I0602 15:27:17.026569  7148 net.cpp:122] Setting up relu5
I0602 15:27:17.026581  7148 net.cpp:129] Top shape: 50 512 17 17 (7398400)
I0602 15:27:17.026585  7148 net.cpp:137] Memory required for data: 1044608600
I0602 15:27:17.026589  7148 layer_factory.hpp:77] Creating layer pool5
I0602 15:27:17.026599  7148 net.cpp:84] Creating Layer pool5
I0602 15:27:17.026603  7148 net.cpp:406] pool5 <- conv5
I0602 15:27:17.026610  7148 net.cpp:380] pool5 -> pool5
I0602 15:27:17.026667  7148 net.cpp:122] Setting up pool5
I0602 15:27:17.026676  7148 net.cpp:129] Top shape: 50 512 6 6 (921600)
I0602 15:27:17.026680  7148 net.cpp:137] Memory required for data: 1048295000
I0602 15:27:17.026684  7148 layer_factory.hpp:77] Creating layer fc6
I0602 15:27:17.026696  7148 net.cpp:84] Creating Layer fc6
I0602 15:27:17.026701  7148 net.cpp:406] fc6 <- pool5
I0602 15:27:17.026708  7148 net.cpp:380] fc6 -> fc6
I0602 15:27:17.201004  7148 net.cpp:122] Setting up fc6
I0602 15:27:17.201047  7148 net.cpp:129] Top shape: 50 4096 (204800)
I0602 15:27:17.201053  7148 net.cpp:137] Memory required for data: 1049114200
I0602 15:27:17.201066  7148 layer_factory.hpp:77] Creating layer relu6
I0602 15:27:17.201081  7148 net.cpp:84] Creating Layer relu6
I0602 15:27:17.201087  7148 net.cpp:406] relu6 <- fc6
I0602 15:27:17.201097  7148 net.cpp:367] relu6 -> fc6 (in-place)
I0602 15:27:17.201617  7148 net.cpp:122] Setting up relu6
I0602 15:27:17.201633  7148 net.cpp:129] Top shape: 50 4096 (204800)
I0602 15:27:17.201638  7148 net.cpp:137] Memory required for data: 1049933400
I0602 15:27:17.201643  7148 layer_factory.hpp:77] Creating layer drop6
I0602 15:27:17.201689  7148 net.cpp:84] Creating Layer drop6
I0602 15:27:17.201694  7148 net.cpp:406] drop6 <- fc6
I0602 15:27:17.201702  7148 net.cpp:367] drop6 -> fc6 (in-place)
I0602 15:27:17.201743  7148 net.cpp:122] Setting up drop6
I0602 15:27:17.201750  7148 net.cpp:129] Top shape: 50 4096 (204800)
I0602 15:27:17.201756  7148 net.cpp:137] Memory required for data: 1050752600
I0602 15:27:17.201759  7148 layer_factory.hpp:77] Creating layer fc7
I0602 15:27:17.201768  7148 net.cpp:84] Creating Layer fc7
I0602 15:27:17.201772  7148 net.cpp:406] fc7 <- fc6
I0602 15:27:17.201779  7148 net.cpp:380] fc7 -> fc7
I0602 15:27:17.240245  7148 net.cpp:122] Setting up fc7
I0602 15:27:17.240285  7148 net.cpp:129] Top shape: 50 4096 (204800)
I0602 15:27:17.240291  7148 net.cpp:137] Memory required for data: 1051571800
I0602 15:27:17.240303  7148 layer_factory.hpp:77] Creating layer relu7
I0602 15:27:17.240316  7148 net.cpp:84] Creating Layer relu7
I0602 15:27:17.240324  7148 net.cpp:406] relu7 <- fc7
I0602 15:27:17.240332  7148 net.cpp:367] relu7 -> fc7 (in-place)
I0602 15:27:17.240602  7148 net.cpp:122] Setting up relu7
I0602 15:27:17.240622  7148 net.cpp:129] Top shape: 50 4096 (204800)
I0602 15:27:17.240629  7148 net.cpp:137] Memory required for data: 1052391000
I0602 15:27:17.240635  7148 layer_factory.hpp:77] Creating layer drop7
I0602 15:27:17.240644  7148 net.cpp:84] Creating Layer drop7
I0602 15:27:17.240649  7148 net.cpp:406] drop7 <- fc7
I0602 15:27:17.240656  7148 net.cpp:367] drop7 -> fc7 (in-place)
I0602 15:27:17.240694  7148 net.cpp:122] Setting up drop7
I0602 15:27:17.240701  7148 net.cpp:129] Top shape: 50 4096 (204800)
I0602 15:27:17.240705  7148 net.cpp:137] Memory required for data: 1053210200
I0602 15:27:17.240710  7148 layer_factory.hpp:77] Creating layer fc8_oxford102
I0602 15:27:17.240720  7148 net.cpp:84] Creating Layer fc8_oxford102
I0602 15:27:17.240725  7148 net.cpp:406] fc8_oxford102 <- fc7
I0602 15:27:17.240733  7148 net.cpp:380] fc8_oxford102 -> fc8_oxford102
I0602 15:27:17.254252  7148 net.cpp:122] Setting up fc8_oxford102
I0602 15:27:17.254268  7148 net.cpp:129] Top shape: 50 102 (5100)
I0602 15:27:17.254272  7148 net.cpp:137] Memory required for data: 1053230600
I0602 15:27:17.254281  7148 layer_factory.hpp:77] Creating layer fc8_oxford102_fc8_oxford102_0_split
I0602 15:27:17.254290  7148 net.cpp:84] Creating Layer fc8_oxford102_fc8_oxford102_0_split
I0602 15:27:17.254295  7148 net.cpp:406] fc8_oxford102_fc8_oxford102_0_split <- fc8_oxford102
I0602 15:27:17.254303  7148 net.cpp:380] fc8_oxford102_fc8_oxford102_0_split -> fc8_oxford102_fc8_oxford102_0_split_0
I0602 15:27:17.254317  7148 net.cpp:380] fc8_oxford102_fc8_oxford102_0_split -> fc8_oxford102_fc8_oxford102_0_split_1
I0602 15:27:17.254362  7148 net.cpp:122] Setting up fc8_oxford102_fc8_oxford102_0_split
I0602 15:27:17.254370  7148 net.cpp:129] Top shape: 50 102 (5100)
I0602 15:27:17.254375  7148 net.cpp:129] Top shape: 50 102 (5100)
I0602 15:27:17.254379  7148 net.cpp:137] Memory required for data: 1053271400
I0602 15:27:17.254384  7148 layer_factory.hpp:77] Creating layer loss
I0602 15:27:17.254391  7148 net.cpp:84] Creating Layer loss
I0602 15:27:17.254395  7148 net.cpp:406] loss <- fc8_oxford102_fc8_oxford102_0_split_0
I0602 15:27:17.254401  7148 net.cpp:406] loss <- label_data_1_split_0
I0602 15:27:17.254408  7148 net.cpp:380] loss -> (automatic)
…
